Models/The Tell-Tale Heart/Tell-Tale-Heart.pt (torch, 332040 bytes, 2 tensors)

input_embeddings.weight f4 [413, 100]
000000 1b 59 15 be 6b 75 8f 3e f7 f6 53 3e f1 1e 01 bf
       -0.14584772 0.2801927 0.20699678 -0.5043784
000010 ee 7a cc be 6d dd 44 3c 7c 37 de 3e ed a4 86 3d
       -0.39937538 0.012015683 0.43401706 0.06574426
000020 cf fa d2 3d 4f ed f9 be ae 63 ec be a8 b2 cf bd
       0.10301744 -0.48813865 -0.461698 -0.10141498
000030 d3 09 6d 3e bb d8 9e 3e 2b 74 c6 3e c2 e2 82 be
       0.23148279 0.31024727 0.38760504 -0.25563627
000040 c6 dd 54 be f3 67 4c bf 5f 35 7b be c2 3a 82 be
       -0.20787725 -0.79846114 -0.24532078 -0.25435454
000050 0c 6a 39 bf 1b c2 3d bf a1 9b 47 3f ee af ff be
       -0.7242744 -0.74124306 0.77971846 -0.4993891
000060 24 f6 03 3f 42 04 03 3f 21 25 d3 be 42 46 0d bf
       0.51547456 0.5117837 -0.41239265 -0.5518533
000070 c0 cc 69 be 36 7e ae be 00 af 32 3e ee 92 9d be
       -0.22832012 -0.34080666 0.1744957 -0.3077616
000080 1c 5e 09 be a6 78 a8 be 52 d7 4e be b1 df 2e bd
       -0.13414806 -0.32904547 -0.20199326 -0.042693797
000090 b2 56 4e 3e ba 3f c5 3c 8f ed 26 bf d4 76 8d 3d
       0.20150259 0.024078239 -0.65206236 0.0690743
0000a0 31 be 47 be 27 6d 08 be d0 4a e5 3a ed 8d 1d bd
       -0.19506146 -0.13322888 0.0017493609 -0.03846543
0000b0 5c 4e 6b be af 28 38 3f 93 3e 56 3e 08 c0 2c bb
       -0.2297911 0.7193708 0.20922308 -0.0026359577
0000c0 ed 33 b1 be 89 0c 27 bf ac 20 3c bf 28 df 9c 3e
       -0.3460993 -0.652535 -0.73487353 0.30639005
0000d0 eb 40 dd be e3 37 e2 be c4 43 ae be bd 47 c9 3b
       -0.4321359 -0.44183263 -0.34036076 0.006142585
0000e0 98 03 1d bf 77 c6 55 bf b4 74 48 3f de 6e 7b bf
       -0.6133361 -0.8350596 0.78303075 -0.98216045
0000f0 9b 06 a8 be a7 dd d6 be 3d 1c eb 3d 01 bc 3c bf
       -0.3281754 -0.41965982 0.114799954 -0.7372437
000100 04 4e 71 3e 02 26 c0 be 34 bf 2f bf 52 ec 95 bd
       0.23564917 -0.37528998 -0.6865113 -0.07320465
000110 1d 45 27 be 56 f9 cc be 63 c9 d8 3e 41 45 6e 3e
       -0.16334958 -0.40033978 0.42341146 0.23268606
000120 66 28 1d 3f 6e 82 38 3e d3 d2 3c bf 29 e7 91 3e
       0.6138977 0.18018505 -0.7375919 0.28496674
000130 ad ca 4f 3f 15 dd 60 3f 00 7c 95 3e 2f ef 04 3f
       0.81168634 0.87837344 0.29196167 0.51927465
000140 cf 42 1f be 5a ff 77 be 39 ba 09 3e 46 11 07 3e
       -0.15552829 -0.24218503 0.13449945 0.13190183
000150 d6 74 d7 3e f7 b7 d1 3e 14 5e b6 be 23 e5 ac bd
       0.42081326 0.40960667 -0.3561865 -0.08442142
000160 ec 33 10 bf 1f 7b bd be 22 f2 7d 3d a6 0c f2 be
       -0.56329226 -0.37007996 0.061998494 -0.47275275
000170 34 e6 03 bf 24 1c d8 3e 85 e0 59 3e 51 1e 2b bf
       -0.5152314 0.4220897 0.21277054 -0.66843134
000180 ad ed d4 be 76 cc d4 be 50 5c 7a be 32 c0 4f bf
       -0.41587582 -0.4156224 -0.24449277 -0.8115264
000190 0d 03 04 bf 32 be b4 3e d5 cf b9 bd e2 98 da be
       -0.51567155 0.35301358 -0.09072844 -0.42694765
0001a0 a6 8e d3 3e 0b bd 0f 3e 90 5a 90 3e 67 55 09 3f
       0.4131977 0.14036958 0.28194094 0.5364594
0001b0 f9 9e 6f 3e 69 68 f9 be 2d c8 4e bf cf f5 c3 be
       0.23400487 -0.4871247 -0.80774194 -0.38273475
0001c0 2a 63 c2 3d b5 df 9d 3e 32 34 e1 3e 6c 51 30 3e
       0.0949157 0.30834737 0.43985134 0.1721856
0001d0 e7 02 c9 3c b2 0a 05 bf fa c9 85 be 0e fe c6 be
       0.024537517 -0.51969445 -0.26130658 -0.38865703
0001e0 74 e6 4a bc fb 10 21 be eb aa b5 3e b0 99 9b bd
       -0.012384046 -0.15729134 0.35481963 -0.07597673
0001f0 6d 7c f9 be 12 fd ef 3d cc cb cc bd 01 cd 3c 3e
       -0.48727742 0.11718191 -0.09999809 0.18437578
000200 86 85 e4 bd 01 e0 a0 3d 92 47 31 3e ed 21 eb be
       -0.1115828 0.07855225 0.17312458 -0.4592432
000210 b5 ed 42 be df 94 3c 3c 4a 0b 78 be 2d 12 df be
       -0.1903599 0.011510103 -0.24223056 -0.43568555
000220 0b e1 bd 3d f0 b6 b4 bd a2 ce 05 bf 3a 70 79 bb
       0.09271439 -0.08823955 -0.5226842 -0.0038061277
000230 6d 34 8f 3e e1 83 1d 3f e2 d1 e5 3e 24 e7 a4 3e
       0.27969685 0.61529356 0.4488669 0.32207596
000240 ec 11 76 be 3a 30 8f be 60 e0 71 bd 90 83 0c 3d
       -0.24030274 -0.2796648 -0.05905187 0.034305155
000250 2f d4 ae be c0 90 89 3d a1 85 bf 3d 59 e3 92 3e
       -0.34146258 0.06717062 0.093516596 0.28689077
000260 ca 92 a2 be d1 24 b8 3e 4a 09 6e 3e cd 9d 10 bf
       -0.31752616 0.3596559 0.23245731 -0.56490785
000270 49 6f 4a be 46 17 3a bf a0 18 e1 3e 8c b6 2d bf
       -0.19769014 -0.7269176 0.439641 -0.6785667
000280 1c b5 b1 be 96 cf 27 3e 79 40 f2 3e f1 17 ca be
       -0.34708488 0.16387782 0.47314814 -0.3947139
000290 d5 3d ed be 41 22 b6 bb 75 51 cd be 5d 71 d4 3d
       -0.46336237 -0.0055582826 -0.4010121 0.10373185
0002a0 39 87 cf 3c c5 52 d6 bd 2e 9c ee bd 1b 54 39 3d
       0.025333034 -0.10465006 -0.11650883 0.045246225
0002b0 a5 98 05 3f e6 de 2a 3f a6 08 0e 3f 38 23 d9 bd
       0.5218604 0.66746366 0.55481946 -0.106024206
0002c0 f2 03 26 3f d4 72 1a 3f 90 14 ce be 29 e1 41 3f
       0.6484977 0.60331464 -0.40250063 0.7573419
0002d0 fd 6d 3e 3e 40 6c 02 bf 13 aa 94 be f3 ed 63 3e
       0.18596645 -0.50946426 -0.29036006 0.22258739
0002e0 82 05 c5 3e 54 fd 0b 3e 5e 90 e1 3e 59 65 3a be
       0.38480765 0.13670856 0.44055456 -0.18202724
0002f0 d2 f7 7d 3e 67 f5 94 be 8b ec ca be 0c ad a5 3b
       0.24801567 -0.29093477 -0.39633593 0.005056029
000300 24 35 29 be 35 99 0b 3f 9a f1 bf 3e f2 ae 15 bf
       -0.16524178 0.5453065 0.37489015 -0.5847007
000310 89 6c ac be fb d5 83 3e a7 0f 4f be 27 d7 8c be
       -0.33676556 0.25749192 -0.20220815 -0.27507898
000320 dc b7 5b bf e0 b4 4f be 98 fd 23 3f 9d 59 6d be
       -0.8582742 -0.20283842 0.6405883 -0.23178716
000330 4a 92 12 3e a7 7d 19 3f 3c 2e b9 3e 31 b8 b9 3e
       0.14313617 0.59957355 0.36168087 0.3627334
000340 c5 37 0b 3f e6 86 2c bf a7 d7 f6 3c 4b c8 45 bd
       0.5438197 -0.6739334 0.030132128 -0.048286717
000350 44 66 70 be a2 ce 6e bd ee e4 ac 3e 2d 8a 95 be
       -0.23476511 -0.05830253 0.3376841 -0.29206982
000360 cf 94 0f bf 62 b2 d7 be 70 f0 e8 bd e4 c0 00 3c
       -0.5608644 -0.42128283 -0.11373985 0.007858489
000370 51 71 4e be 07 03 2e bf 33 81 98 3e 19 b4 04 bf
       -0.20160414 -0.6797337 0.2978607 -0.5183731
000380 db b9 b1 3d 85 96 84 3e 65 1e 66 bf 30 e8 81 be
       0.08678027 0.25896087 -0.8989013 -0.25372458
000390 de 0d d1 bd d0 fb 01 be ff d0 94 3b 6c a6 30 bd
       -0.10207723 -0.12693715 0.004541516 -0.043127462
0003a0 0f 0c 3d be 26 d2 e2 3e b6 b0 b6 3d 58 c0 b1 3d
       -0.18461631 0.44300956 0.08920424 0.08679265
0003b0 f9 5b 8e bd 2f a8 f4 be db 46 26 bf 49 4e 21 be
       -0.06951136 -0.47784564 -0.64951867 -0.1575252
0003c0 f7 0f 25 3e 30 8f 38 bd c0 85 d7 3e 38 85 2c be
       0.16119371 -0.04505843 0.4209423 -0.16847694
0003d0 b5 9e e1 bb f9 6d 73 3e 5b b9 fe bd f2 0b b5 be
       -0.0068853744 0.2377242 -0.124376975 -0.35360676
0003e0 87 b7 9a 3e 84 45 04 bf ea b2 20 bf ae a7 26 bc
       0.30218145 -0.5166857 -0.62773 -0.010171814
0003f0 72 ae 47 bf b6 67 16 3d e4 ee 61 3e 4a 25 c6 be
       -0.7800056 0.03672 0.22063786 -0.38700324

output_embeddings.weight f4 [413, 100]
000000 51 f9 38 bf 2e 55 b7 3d 09 d9 2f 3f 75 48 6a bf
       -0.72255427 0.089517936 0.68690544 -0.9151681
000010 7e f9 7c 3e 10 71 51 3f 01 a6 59 bf b9 8e 49 3e
       0.24704549 0.81813145 -0.85018927 0.1968335
000020 d2 46 d1 3c bd 27 5b 3d a6 9e 2b 3e 00 a4 86 be
       0.025546465 0.053504694 0.16759738 -0.26296997
000030 08 4e dc be 65 31 22 bf 2b e8 d1 be 1c 1a 20 bf
       -0.43028283 -0.6335662 -0.40997443 -0.6253984
000040 30 48 55 bc 54 dc da be 8d 6e 1b 3f cd 59 4e bf
       -0.013017699 -0.42746222 0.6071556 -0.80605775
000050 1a 30 5b 3f 08 6c 2e be 9e 40 3a 3f c9 64 1d be
       0.8562027 -0.17033398 0.7275485 -0.15370478
000060 4d fc 82 bd 99 f9 0c bf bb 62 32 bf ff ba a3 3e
       -0.06395779 -0.55068356 -0.696819 0.31978604
000070 7b b2 b5 be c1 8d 77 bf 81 21 32 3f 21 b8 3a be
       -0.35487732 -0.96700674 0.6958237 -0.18234302
000080 7d d9 d0 bb 83 d6 69 3f 52 30 e0 be d3 eb 44 bf
       -0.006373583 0.91342944 -0.43786865 -0.7692234
000090 d5 33 01 bf d3 92 ea bc 1e 71 6a bb d9 f7 4b be
       -0.50469714 -0.028634464 -0.003577299 -0.19918765
0000a0 4d 30 1a 3f 45 44 5e 3e de e3 c8 bd ac a7 44 3f
       0.6022995 0.2170573 -0.09809087 0.76818347
0000b0 52 94 0f 3f 58 9f f4 3e 0d af a0 be 55 36 99 bd
       0.56085694 0.4777782 -0.31383553 -0.07481066
0000c0 9e df fa be 07 fa d4 3d 79 15 d0 be b9 60 af 3d
       -0.4899873 0.103992514 -0.40641382 0.0856337
0000d0 2d a0 7c be be d3 ba 3e 68 2b 1c 3e 1b b8 26 be
       -0.24670477 0.3648967 0.15250933 -0.16281168
0000e0 1b 16 b1 3d 66 7e 11 bf 9c 77 cd 3e 6e 51 2a bf
       0.086467944 -0.56833494 0.40130317 -0.665305
0000f0 a7 56 c0 3e e9 e4 52 3e 39 42 6c 3f 1f 59 96 3e
       0.3756611 0.20595135 0.9228855 0.2936487
000100 07 e7 e5 3e 09 e3 26 3f f2 c0 da be df 53 e0 3e
       0.44902822 0.6519018 -0.4272533 0.4381399
000110 c5 a2 ea be e7 cc 03 bf 66 f8 16 3f 65 41 35 3e
       -0.45827308 -0.5148453 0.58972776 0.17700727
000120 f9 fe e7 3e c4 64 9e bd 01 88 7c 3f 39 57 80 be
       0.45311716 -0.07734063 0.98645025 -0.25066546
000130 e0 45 00 3e a0 f2 f5 3d c3 c9 c2 3e 67 06 ec bd
       0.12526655 0.12009168 0.38044557 -0.11524659
000140 e1 f4 a2 3c 6c 4b 63 3d 85 65 08 3c 87 a3 61 bf
       0.019892158 0.05549185 0.008324985 -0.8814015
000150 1c eb a2 3e 74 e4 ae 3d 08 49 23 3f a1 ab 3e be
       0.3182 0.08539668 0.6378331 -0.18620159
000160 8b c2 e9 be 2a 91 ca 3e 6a 90 8c bf f4 34 b7 bd
       -0.45656237 0.39563876 -1.0981572 -0.08945647
000170 9c 89 c4 3e cf 9f 11 3f e0 4c 17 be c8 a9 cd be
       0.38386238 0.56884474 -0.14775419 -0.40168595
000180 7d c1 c8 3e 0a 05 5c 3e 7f a2 69 be de 8b d0 be
       0.3921012 0.21486297 -0.22815894 -0.4073171
000190 4c c2 06 bf e2 4b 15 3e fa 7b 2d 3f 2c 53 1f bf
       -0.52640224 0.14579728 0.677673 -0.62236285
0001a0 51 6a b5 be 73 a3 16 3f 1b ce e2 be 2c 37 ef 38
       -0.35432675 0.58843154 -0.4429787 0.00011406685
0001b0 0c fa 06 3e 50 98 c5 be 7b 2e 56 3e a4 8f 53 3e
       0.13181323 -0.38592768 0.20916168 0.20660263
0001c0 0c 1f a8 3d b6 b4 96 3e 96 2f f3 bd ec 3f 28 bf
       0.08209047 0.29434747 -0.11874311 -0.6572254
0001d0 46 d1 52 be 47 a9 40 3d 65 8f 57 3e 31 6e 98 be
       -0.20587644 0.047036435 0.21050794 -0.2977157
0001e0 1c 25 c4 be 93 e6 5b be 17 e6 a7 3e a7 50 08 3d
       -0.38309562 -0.21474676 0.32792732 0.03328004
0001f0 70 7b 82 bd 07 cc 93 bc eb 7d 0c bf 09 d7 d1 be
       -0.063712 -0.018041624 -0.54879636 -0.4098437
000200 e2 a9 a7 be 27 7c 49 bf 62 b3 da 3d 52 ac 12 bf
       -0.32746798 -0.78705066 0.10678746 -0.5729419
000210 ee 04 38 bf 58 99 cd 3e 76 8b 14 bf 2c 52 0e bf
       -0.7188252 0.40156054 -0.580253 -0.55594134
000220 d2 21 27 bf 04 78 ac 3c fe 2b c5 bd aa 5a 37 bf
       -0.6528598 0.021053322 -0.096275315 -0.7162272
000230 77 60 5f 3e 77 67 55 be 7a 57 d5 3e 46 ba 92 be
       0.21814142 -0.2084025 0.41668302 -0.2865774
000240 fd 1a 87 3e 96 29 eb 3e 2c b1 3e 3a d8 cf 17 bf
       0.26387778 0.45930165 0.00072743255 -0.5930152
000250 0e 4a a8 bb 00 4f f3 be f8 a8 c8 be 8c b1 f5 bb
       -0.005135781 -0.4752121 -0.39191413 -0.007497972
000260 5a 91 eb 3c a2 e5 22 be a0 71 04 be d6 c3 d4 3e
       0.028755832 -0.1590791 -0.1293397 0.4155566
000270 cc 5f 0f 3e 38 3a c4 3d 46 22 ca 3e 56 07 48 be
       0.14001387 0.09581417 0.39479274 -0.19534048
000280 d6 6a ee 3e 64 63 f0 3d 84 1b 14 3f da b9 a8 3e
       0.46565884 0.11737707 0.57854486 0.32954293
000290 d3 dd b1 3e 5c 52 9e 3e 8c 90 01 3d a6 d9 3a 3d
       0.3473955 0.3092221 0.03163199 0.045617722
0002a0 57 96 1e bf 18 95 12 bf d4 cf 2a 3f 10 4d b5 be
       -0.6194815 -0.5725875 0.6672337 -0.35410357
0002b0 69 ed e2 3e a9 31 a0 3e 6c 58 73 3d 90 87 60 3c
       0.44321755 0.31287888 0.059410498 0.013704196
0002c0 74 4b d1 3e 22 19 bd 3e c1 25 0b 3f e0 47 88 bd
       0.4087788 0.36933237 0.5435448 -0.06654334
0002d0 6f 09 c0 3e ae 19 7d bd 3f cd 1f bf 18 21 48 bf
       0.37507197 -0.06179207 -0.62422556 -0.781755
0002e0 ef 24 b3 3d 2d 7e 07 3f c1 a0 28 3e 33 3b 50 3c
       0.08747279 0.52926904 0.16467573 0.012709427
0002f0 a2 d5 11 bf 07 fc e6 3e 3c 88 08 bf 46 46 14 3e
       -0.569666 0.45114157 -0.5333288 0.14479932
000300 0f 81 49 3e ca c3 55 3e c7 40 fa be 62 dc ac 3d
       0.19678138 0.20875469 -0.48877546 0.08440472
000310 5f 74 7a 3e f9 f4 d4 3e 0b 0e 43 3d e8 a2 3f bf
       0.24458455 0.4159315 0.047620814 -0.7485795
000320 e0 a5 d8 be b2 ba 54 3d b8 6d 9f 3e 4d d5 20 be
       -0.42314053 0.05193586 0.31138396 -0.15706368
000330 c6 09 ce be 77 c7 21 3f 0e 49 8f be 77 08 37 bd
       -0.40241832 0.63194984 -0.27985424 -0.044685807
000340 0a 5f 2b 3e 5e 00 65 be 58 35 1f be d9 44 7a be
       0.16735473 -0.22363421 -0.15547693 -0.24440326
000350 4d d3 a8 3e c4 56 21 3e 4b f9 59 3e ba 2f 18 bf
       0.3297371 0.15755755 0.21286504 -0.59447825
000360 15 62 ee 3d 7b bf 4c bc 06 6f 52 3e 3a df 79 be
       0.116398014 -0.012496824 0.20550165 -0.2440156
000370 ac d2 23 be 0c 5e 15 be bb b0 63 3f 39 99 92 3e
       -0.15998334 -0.14586657 0.88941544 0.28632525
000380 18 c4 3f bf dc 25 11 be a8 fb 66 bf f2 07 31 be
       -0.7490859 -0.14174598 -0.90227747 -0.17288187
000390 43 51 48 bf ec 84 56 bf 86 ac a9 3e d1 ce 0f bf
       -0.78248996 -0.8379657 0.33139437 -0.5617495
0003a0 b1 fe de bd 46 ff 65 bd 7c 5e e5 be a5 64 47 bf
       -0.10888422 -0.05615165 -0.44798648 -0.77887946
0003b0 14 22 78 be 1e a2 71 be 33 a8 e4 3d 94 a8 ce be
       -0.2423175 -0.23596999 0.11164894 -0.4036299
0003c0 73 9f 2b 3f 1d 7b c9 be 18 b8 97 3e 94 ee a4 bc
       0.67040175 -0.3935174 0.2963264 -0.020133294
0003d0 28 78 a9 3d 09 05 cd 3d 21 7c 10 bf d8 be a6 bd
       0.08274871 0.10010726 -0.56439406 -0.08141869
0003e0 c1 21 48 bf 6c 40 06 bf 66 b5 14 3e d9 1c 9e be
       -0.78176504 -0.5244205 0.14522323 -0.30881384
0003f0 89 83 3d 3e df 0a 60 3e b7 ab a7 3c 3e c3 bb 3d
       0.18507208 0.21879147 0.020467622 0.09168099
