Models/Cask of Amontillado/Cask-of-Amontillado.pt (torch, 451232 bytes, 2 tensors)

input_embeddings.weight f4 [562, 100]
000000 08 f9 96 3f 6a 2b 78 be fa 7c aa 3e f2 14 3e bf
       1.1794748 -0.24235311 0.33298475 -0.7425071
000010 90 a5 54 3f 20 81 7e bb cc 10 38 bf d5 d0 6c be
       0.8306513 -0.0038834289 -0.7190063 -0.23126538
000020 b5 c1 58 bf d0 57 84 3f 15 19 3c bd 5f bc a7 3e
       -0.84670573 1.0339298 -0.045922358 0.32760903
000030 d9 86 24 3f 9a 9d 83 bc f7 07 76 bf d1 50 86 bf
       0.6426826 -0.016066361 -0.96105903 -1.0493413
000040 ce b2 82 3f ef 2b 96 3f 5e 0c 4e 3e a4 9f 5d 3f
       1.0210817 1.1732157 0.20121905 0.8657172
000050 66 57 07 3f c5 85 94 bf d8 71 58 bf 9c 09 1e bf
       0.52867734 -1.1603323 -0.8454871 -0.6173341
000060 71 fc 32 bc 13 87 f6 be 0c ee 0c be f2 f3 e5 3e
       -0.0109244445 -0.48149928 -0.13762683 0.44912678
000070 18 d1 24 bf 91 ff 5d be df 90 d6 3e bf 67 0e 3f
       -0.6438155 -0.21679522 0.41907403 0.55627054
000080 29 e3 35 be 73 12 1c bf 9a dd 06 3f d3 79 12 3f
       -0.17762436 -0.6096565 0.5268189 0.5721714
000090 2a 3e 26 3f 72 1c b2 3e a9 65 92 3c 0b 14 11 bf
       0.64938605 0.34787327 0.017870741 -0.5667121
0000a0 71 be 56 3f 8b 0f c9 be 4f 25 03 3f 82 7f 47 bf
       0.8388434 -0.3926967 0.51228803 -0.77928936
0000b0 67 9a 31 bf be eb fc 3e 7c 06 95 be 83 b1 c4 3e
       -0.69376224 0.49398607 -0.2910651 0.3841668
0000c0 7c c7 ce be 78 69 c9 3d c7 48 d2 3d 58 db c3 bc
       -0.4038657 0.0983457 0.102677874 -0.023908302
0000d0 63 0f 42 3f 71 18 ab 3d 16 19 a0 be c5 c4 fb be
       0.7580473 0.08354271 -0.3126914 -0.4917356
0000e0 5e 2f 83 bd 50 62 af be 4c 6f c2 3d a9 80 08 3f
       -0.06405519 -0.34254694 0.094938844 0.5332132
0000f0 01 61 be be be fb 00 3e 0a fd 2e 3f 42 cf b5 bc
       -0.37183383 0.12596032 0.68354857 -0.022193555
000100 82 9a af 3e 32 10 3e bd f8 f6 c5 3e de 02 21 3f
       0.34297568 -0.046402164 0.38664985 0.62895
000110 1a 82 1c 3f b9 a0 93 3e b4 c9 7e be 1e b6 89 be
       0.6113602 0.2883356 -0.24881631 -0.26896757
000120 75 a5 00 3f a3 56 91 bd 06 4f 60 be db 85 83 3e
       0.5025247 -0.07096603 -0.21905145 0.2568806
000130 b0 0c 81 be 46 85 9c be 99 50 12 bf b2 eb 81 3e
       -0.25204992 -0.3057043 -0.5715423 0.25375134
000140 fc 00 06 bf 37 27 37 3f 14 ff ba be 8c 9a 1a 3f
       -0.5234525 0.7154421 -0.36522734 0.6039207
000150 d3 b8 cd be 15 ac 31 be b9 c9 4a be 51 9a 8d 3e
       -0.40180072 -0.173508 -0.19803514 0.27656797
000160 cb 80 2d bf d8 5e f9 be 19 73 dd bd 4f aa 94 be
       -0.6777465 -0.48705173 -0.10812969 -0.29036185
000170 89 d5 53 3c 98 13 a3 3e 59 f1 fd bd af 5c 3f bf
       0.012929329 0.31850886 -0.12399549 -0.747508
000180 26 dd 89 be ce 9e 01 3f 3d 4e c0 bb ca ff 9f 3e
       -0.26926535 0.5063294 -0.0058687017 0.3124984
000190 e2 67 e0 3e f7 62 2f bf 37 9b 91 be cc fe 29 bf
       0.43829256 -0.68510383 -0.28438732 -0.66404414
0001a0 c1 09 59 3e 86 18 a5 be 10 77 4a 3e fd ba 80 3d
       0.21195127 -0.32245272 0.19771981 0.06285665
0001b0 56 6b cb 3e 15 a8 8b 3c f3 9d b3 be a0 97 8a bd
       0.39730328 0.017047921 -0.35081443 -0.067672014
0001c0 2a 81 d1 3e 02 51 a6 be 8b c7 e9 be 8a e2 2a bf
       0.40918857 -0.3248368 -0.45660052 -0.6675192
0001d0 47 2c fc 3e 2b f6 7c 3f c8 79 f4 bc 90 ba 1e 3f
       0.4925253 0.9881312 -0.029843226 0.6200342
0001e0 58 5d d2 3e 97 75 9c be e2 ce 7e be 44 71 b3 3d
       0.4108684 -0.30558464 -0.24883607 0.08761838
0001f0 67 8a 77 3e 94 b9 c0 be f8 32 8a be 42 6f e8 3e
       0.2417389 -0.37641585 -0.2699201 0.45397383
000200 0f 05 d6 be 4c 0d 04 3e 16 a0 38 3f 83 0b 10 3f
       -0.41800734 0.12895697 0.7211927 0.56267565
000210 8b 0a 12 3e ce 63 eb be 61 14 88 3e aa 65 71 be
       0.14261834 -0.45974582 0.26578048 -0.23573938
000220 81 93 2c 3e cd 72 da 3e 08 12 29 3e e9 ee bc be
       0.16853143 0.4266571 0.16510785 -0.36901024
000230 73 09 21 3f 23 63 ab be 12 04 38 b9 42 44 9e be
       0.62905043 -0.33474073 -0.00017549124 -0.30911452
000240 27 3b 35 bf c8 db b8 3e c9 76 2a bd 38 5e 02 3f
       -0.70793384 0.3610518 -0.04161719 0.50925016
000250 ce 32 6b bc 5a 7b 82 be de f1 ac 3e eb ff 9f 3d
       -0.0143553745 -0.25484735 0.3377828 0.07812484
000260 a7 4f 10 3f b3 7c 65 3f 6a a7 b9 be 21 70 af bd
       0.5637154 0.896434 -0.3626054 -0.08566309
000270 ca 9f 18 bd 79 d1 e3 bd 56 32 b2 3e 63 1f 9b 3e
       -0.03726176 -0.11123938 0.34804028 0.30297384
000280 2d fd 74 3e fa 07 84 3e 4f f7 b7 3e e9 3e 2f bf
       0.23924704 0.25787336 0.3593087 -0.6845537
000290 80 63 04 bd 40 05 e1 bc ce a5 a0 3d dc c2 f5 bc
       -0.032321453 -0.027468324 0.07844125 -0.030000143
0002a0 20 16 46 3e 47 17 e6 3e 50 60 1e bf cc c7 ce be
       0.19344378 0.44939634 -0.6186571 -0.40386808
0002b0 f0 80 69 b9 8d f4 7b be 86 31 8a be f1 46 b6 be
       -0.00022268645 -0.24605007 -0.26990908 -0.35601
0002c0 2f a2 dc 3d 5b cc 23 bf 78 a0 a5 be e9 ab 27 3e
       0.107731216 -0.63983697 -0.3234899 0.16374172
0002d0 bd 36 a2 be aa 9f 1c 3f 11 57 f8 be 9c e3 08 be
       -0.31682387 0.6118113 -0.48503926 -0.13368076
0002e0 3a a3 d4 be 84 8f 17 be 1e 89 6b 3f 31 5b d9 3e
       -0.41530782 -0.1480084 0.920061 0.42452386
0002f0 9e 39 bc bd 48 8d 08 3f ba b5 b2 3e 3f b2 fb 3d
       -0.09190677 0.5334058 0.3490427 0.12289857
000300 78 05 d8 3d f7 8e 28 be 26 94 2d 3f 53 be 34 bf
       0.10547918 -0.16460787 0.6780418 -0.7060291
000310 39 3a b0 bd 74 84 5e be d6 8b 5f be cc b0 71 bd
       -0.08604855 -0.21730214 -0.21830687 -0.059006497
000320 b7 7b 8b 3e 39 73 66 bf f7 f5 47 bf d5 fd 81 bf
       0.27242824 -0.90019566 -0.7810969 -1.0155588
000330 16 dc 0e 3f 94 12 e9 be 10 12 81 3d c0 fa 9c be
       0.55804574 -0.45521986 0.06302273 -0.30660057
000340 ce 3f 2b be 9f e6 0f 3f f6 61 b1 be 65 88 18 3d
       -0.16723558 0.56211275 -0.3464505 0.03723945
000350 58 d2 d0 3d aa 0f 2e be 61 ac 65 bf e3 4c 46 bf
       0.1019637 -0.16998163 -0.89716154 -0.7746107
000360 ff 0b 59 3f 9e 53 1f 3f 0a f1 2d 3c 46 32 29 3f
       0.8478393 0.62236965 0.01061655 0.66092336
000370 25 49 41 3f 21 c1 27 bf ae 10 32 bf 78 3b 81 3b
       0.75502235 -0.65529066 -0.695567 0.003943857
000380 1d 50 49 3e 6c 8f ba be 17 c4 d4 be a7 19 07 3e
       0.19659467 -0.36437547 -0.41555855 0.1319338
000390 aa 9a e5 be 21 16 33 bd 35 38 8c 3e a9 b0 35 3f
       -0.44844562 -0.043722276 0.27386633 0.70972687
0003a0 87 9d cc 3d 14 83 78 be 69 59 38 3e 4a 0c b5 bd
       0.099909835 -0.24268752 0.18002857 -0.088402346
0003b0 6b f1 ee 3d 5b 8d e3 3e b6 98 25 3e 38 67 04 bf
       0.116671406 0.44443783 0.16171536 -0.5172
0003c0 de 67 b9 3d 7f fb 3f bf c0 49 54 3e 5b 8f ef be
       0.09053014 -0.7499313 0.20731258 -0.4678906
0003d0 e3 ac 42 bf e0 d4 7d bc fb bc fe 3c 40 a8 d4 3e
       -0.76045054 -0.015492648 0.031095972 0.41534615
0003e0 77 18 c7 bd a5 87 11 bf f2 3d 37 3d 88 6a 65 3e
       -0.09721463 -0.568476 0.04473681 0.2240392
0003f0 5f 86 6c 3f 45 32 fd 3e 96 f7 d8 bd f4 24 2e bd
       0.92392534 0.49452415 -0.10594098 -0.04251571

output_embeddings.weight f4 [562, 100]
000000 92 ac 76 bd 1a fc 94 bc cf 48 00 3f 2d 57 ee be
       -0.06022317 -0.018186618 0.501111 -0.46550885
000010 53 be 84 be a8 ad 44 3d 82 eb bc 3d 9d 4b ef 3e
       -0.25926456 0.048017174 0.09224607 0.46737376
000020 d3 1f a9 3e 51 5b 96 bd 76 45 9a 3d 22 5e 0a 3f
       0.33032092 -0.07341636 0.0753278 0.54049885
000030 52 13 dc 3e 33 15 f9 3d af 20 67 bf 85 23 d5 be
       0.4298349 0.121622466 -0.90284246 -0.41628662
000040 93 e2 2a be d1 f1 8b 3e 98 87 c4 3e d5 90 11 be
       -0.16687994 0.2733293 0.383847 -0.14215405
000050 c8 91 13 3e 0b e4 df 3e c6 b4 77 3e 3f 5c 5b be
       0.1441108 0.4372867 0.24190053 -0.21421908
000060 25 b4 b8 be 26 a3 7c bf 29 be 50 be 6d 45 48 3f
       -0.3607494 -0.98686445 -0.2038504 0.78230935
000070 72 ca 4d 3f 1c c3 d5 3e 99 42 dd 3c 52 8d ee bd
       0.8038703 0.4175042 0.027009295 -0.116480485
000080 db 90 29 3f 5b 67 16 3f cf 4a c5 3e 3d eb 4e 3e
       0.66236657 0.5875146 0.38533637 0.20206924
000090 99 39 98 3f ca ac b8 3e 3e a9 2b 3f cb 8c 99 be
       1.1892577 0.36069328 0.6705512 -0.2999023
0000a0 20 49 91 3e c8 17 30 3d bd 7e 92 bd 88 bb a7 bf
       0.28376102 0.04299143 -0.0715308 -1.3104105
0000b0 b9 a5 09 bf 03 35 39 3f be 0a 30 3f dd 6d b9 3f
       -0.537685 0.72346514 0.6876639 1.4486653
0000c0 dc 58 42 bf 62 61 6f 3e f7 a6 4b 3f e9 46 50 3e
       -0.7591684 0.23376992 0.79551643 0.2033955
0000d0 93 72 83 3e 87 fe 0d 3d b0 e0 1f bf 20 27 85 be
       0.2567335 0.034666564 -0.6245222 -0.26006413
0000e0 4f 94 af 3e 04 8f 7c 3e 4d bd 94 be 74 76 b2 be
       0.34292838 0.24663931 -0.29050675 -0.34855998
0000f0 a3 8d 00 bf 7c d3 91 be 87 0f 8b 3d ec d5 0d bf
       -0.5021612 -0.28481662 0.06790071 -0.55404544
000100 bf ee 02 3e 32 a1 a2 be c1 3d f1 3e 73 83 e7 3e
       0.12786387 -0.31763607 0.47117427 0.45217475
000110 52 b2 53 3f 1e 96 0f 3f 0c 6d a0 be f7 1d ca 3e
       0.8269397 0.56088436 -0.31333196 0.39475986
000120 7f fd e2 3e a7 b4 b5 be d5 41 05 bf b3 ed 26 bf
       0.44334027 -0.3548939 -0.52053577 -0.6520645
000130 d4 3a 34 3e 3d 5a 48 bf 09 66 01 bf cf ef b6 3e
       0.17600566 -0.7826269 -0.5054632 0.35729834
000140 6c 24 19 bf ad 61 ac 3e 9b 7e d1 3e 81 62 c8 3e
       -0.598212 0.3366827 0.40916905 0.39137653
000150 7b e3 64 3e 1b 9e 00 3e f1 d9 4b 3e 01 8d 67 be
       0.22352402 0.12560312 0.19907357 -0.22612382
000160 e0 03 2d 3f 43 2e f8 3e 79 d9 08 3f 1b 58 4c 3f
       0.6758404 0.48472795 0.53456837 0.7982194
000170 0b 34 d0 3e 85 20 54 3e 03 17 22 3f d1 d4 9d bf
       0.40664706 0.2071553 0.63316363 -1.2330571
000180 46 1b 72 be a8 f0 04 3f 73 77 5b be e5 fe 7b be
       -0.23643216 0.5192971 -0.21432285 -0.24608953
000190 0a 23 ae be b1 d9 7a 3d 33 88 0e 3e a3 c6 b5 3d
       -0.34011108 0.061242763 0.13919143 0.088757776
0001a0 d3 d2 a4 3c f2 06 17 be a1 d7 10 bf 70 0e de bd
       0.02012006 -0.14748743 -0.56579024 -0.108425975
0001b0 62 a6 c7 be 54 87 13 3d 98 41 f0 3a 39 d3 d8 3e
       -0.38994128 0.03601773 0.0018330095 0.4234865
0001c0 33 f6 85 3e 4e 80 08 be ef 96 82 be 1b 71 f9 bd
       0.26164398 -0.13330194 -0.25505778 -0.12179776
0001d0 2e d5 3f 3f 4c e6 29 3d f2 57 93 3e 27 fb 30 be
       0.7493466 0.041479394 0.28778034 -0.17283307
0001e0 8a e2 82 3e 7d dc 72 3e a4 ff 5d 3a d2 4e c0 be
       0.2556346 0.23716922 0.00084685744 -0.37560135
0001f0 73 3c f6 3d 49 f3 20 bf 8c 27 ac 3e a1 ca 92 3d
       0.120232485 -0.62871224 0.33623922 0.07167555
000200 ed d4 f3 bd 5e 81 0c 3f 2d d7 e5 3e f7 05 9e 3e
       -0.11905847 0.548849 0.4489073 0.30863926
000210 ae 97 dd 3e 02 87 d6 bd c8 32 16 3f 0a 65 07 3e
       0.43279785 -0.104749694 0.58671236 0.13222137
000220 fd 15 40 3f 44 e4 f6 3e 04 ee c3 3e 10 d4 14 bf
       0.7503355 0.48221028 0.3826753 -0.5813608
000230 91 ff 1d 3e 1e 8f 13 bd 88 ab d2 bd 10 8e 0b bf
       0.15429522 -0.03602516 -0.10286623 -0.54513645
000240 a2 11 2b be 0c 5e 90 be e2 09 fe be d3 22 2b 3f
       -0.16705945 -0.28196752 -0.49616915 0.6685001
000250 aa 3c ab 3d 64 52 f5 be 6f 83 5e 3f e8 94 d0 3e
       0.0836118 -0.47914422 0.869193 0.40738606
000260 7f a5 4f bd ac 58 ac 3d ba 88 fa be 22 da d1 bd
       -0.05069494 0.0841535 -0.4893244 -0.10246684
000270 28 3d f8 bd 9b fe 1d bb 77 2d 43 3f ce 06 05 be
       -0.1212104 -0.0024108056 0.7624125 -0.12990877
000280 45 ff 4c bd f5 ee f7 bd b3 ac ea 3e 2d 3b 77 3d
       -0.05004813 -0.12106124 0.45834884 0.06035917
000290 7d 23 3a bf 3c 0c 35 3e 1c 0c c7 3e 22 0c 0c be
       -0.727104 0.17680448 0.38876426 -0.13676503
0002a0 96 1c b1 3e de e6 40 3f c6 8e ff 3e 16 40 11 be
       0.34592122 0.75352275 0.49913615 -0.14184603
0002b0 9d 13 c2 bd c4 0c 60 be 3b 44 68 be d9 93 47 3e
       -0.09476397 -0.2187987 -0.22682278 0.19489993
0002c0 59 8e 0f 3e 44 fe 6d 3e 14 df c6 3d 43 8b ed be
       0.14019145 0.23241526 0.097105175 -0.4639531
0002d0 64 be 01 be 04 3b e3 be 39 c8 49 3f 92 be fd be
       -0.12670285 -0.44380963 0.7882114 -0.49559456
0002e0 8f f4 da 3e 96 ee e6 bb 0c 3f 5a 3e 50 5d 7c be
       0.42764708 -0.0070474846 0.21313113 -0.24644971
0002f0 9f da 84 be 0f 0d ec 3e 02 da 8d bb ac 0e 40 3d
       -0.25948045 0.46103713 -0.004328967 0.046888992
000300 ce b4 4c 3e 57 92 12 3f 15 9e cf bd a6 c3 fa be
       0.19990847 0.57254547 -0.10137574 -0.48977393
000310 0b e5 30 bf 87 6c 3a 3f 4d c2 1b bf a7 78 27 bf
       -0.6909949 0.7282185 -0.60843354 -0.65418476
000320 3d 21 0f be 57 e5 93 3e 27 e4 28 be 72 bf 7e 3d
       -0.13977523 0.2888591 -0.16493283 0.062194295
000330 da 46 79 bd bb 62 38 bd 3c 6f 0e bf 3f aa 84 3e
       -0.060858585 -0.04501603 -0.5563848 0.25911137
000340 71 4b 4d 3e ff 57 31 be 12 6f 34 3d 8b cd 2c 3f
       0.2004831 -0.17318724 0.044051237 0.67501134
000350 9b 8b 02 3f d7 7b 75 bd d2 3f 82 be d8 89 8d ba
       0.5099427 -0.059932556 -0.25439316 -0.0010798527
000360 58 3a 67 3f 27 43 66 bd fd 3d f6 3d 93 08 e4 3e
       0.903234 -0.056216385 0.12023542 0.44537792
000370 c5 f1 bc be 8d 81 b2 bc 24 1a cd 3e 1e 64 18 3e
       -0.36903206 -0.02179029 0.40059006 0.14881942
000380 ad 11 54 be 50 d9 11 bf a4 13 1b bf 43 80 fc 3e
       -0.20709868 -0.5697222 -0.60576844 0.49316606
000390 d1 77 28 be 00 c6 14 3f 6d bb 5c 3e 08 4a 3d be
       -0.16451956 0.58114624 0.21555872 -0.18485272
0003a0 42 67 05 3c 00 af f7 be bb 95 34 3f 0e 81 24 3d
       0.008142294 -0.48375702 0.7054097 0.04016214
0003b0 11 0b 24 3f 5f cf 43 3f 19 29 53 3f a9 76 eb be
       0.64079386 0.764883 0.82484585 -0.45988968
0003c0 d7 6d ab 3e 5e 89 f0 3d d5 a5 c1 be 40 05 5d bd
       0.3348224 0.11744951 -0.37821832 -0.053960085
0003d0 53 95 37 bf 52 37 a4 bd d1 7a 54 be f3 04 26 3f
       -0.71712226 -0.08018364 -0.20749976 0.648513
0003e0 73 57 a3 bd 42 10 34 bf 1c 6c 17 3f f7 1c 78 3e
       -0.07975664 -0.7033731 0.59149337 0.24229799
0003f0 db 29 53 be 5b 87 96 3e 6e 84 13 bf 6d ba d5 bd
       -0.20621435 0.29400143 -0.57623947 -0.104359485
