Models/Cask_Model.pt (torch, 451178 bytes, 2 tensors)

input_embeddings.weight f4 [562, 100]
0.29151696 0.21834671 0.7133956 0.7368603 0.67665255 -0.44085404 -0.13324712 0.117794804
-0.004404247 0.8901581 0.26124918 -0.15076557 -0.24397655 0.3517013 0.8029729 -0.18547909
0.05819684 -0.050966285 -0.073658966 0.88788474 -0.20367542 0.34457386 -0.4790106 -0.15422653
0.3954715 0.6085728 0.80028415 -0.47789523 -0.41089526 0.14618367 -0.1161804 0.6648287
0.30006698 0.09137413 -0.7272306 -0.07288507 0.19604363 0.38714102 -0.10315998 0.095081545
-0.040120833 -0.8324231 -0.5976571 -0.123426825 -1.0062953 0.21268512 -0.54556966 -0.40954092
-0.46622565 0.7503457 0.28617874 -0.23780967 0.31050408 0.43654504 -0.39948624 -0.53108317
0.45914337 0.65894103 -0.15932834 0.15211739 0.14543906 0.28437784 0.5916517 0.17822754
0.30488834 0.17878547 -0.6774557 0.094378285 -0.23961122 0.024487883 0.7001738 -0.07743672
-0.05266351 0.32788447 0.76920515 -0.3920261 -0.19966695 0.48399484 -0.56088936 -0.021554515
0.041507304 0.02474617 -0.3358571 0.69920737 -0.29872242 0.7720987 -0.081465356 0.1566129
-0.28286958 0.27399683 0.47376245 0.38301632 -0.43535653 0.64598024 -0.35492823 0.23781283
-0.13585074 -0.27284056 0.87293094 -0.2890719 0.006076989 0.043476634 0.4725508 0.36678562
0.20369822 0.7262669 -1.1534005 -0.098294295 -0.4322529 1.6337501 0.062451214 -0.28038606
-0.12314748 0.3642594 0.7168085 0.374709 0.21890227 0.5986946 -0.07385341 1.228465
-0.09200022 0.95224696 0.22017534 -0.4149903 0.78242654 -0.05084568 0.18539423 0.096210875
0.6403894 0.57442564 0.06678842 0.12194346 0.71841174 0.45949984 -0.63314384 -0.16951069
-0.46887708 -0.18698937 1.1751055 -0.3415304 0.044724107 -0.27008298 -0.37440637 -0.15419209
-1.1751878 0.36516312 -0.58748704 -0.60403484 -0.6638579 -0.62678194 -0.23964766 -0.9627851
0.39743802 0.026693175 0.15266182 -0.18209392 0.16536254 0.728699 -0.78793484 0.5714448
0.052057423 0.025400775 0.62439704 -0.46187356 0.9468187 -0.19703045 -0.121982306 0.32904088
-0.41201526 0.089897074 0.06946208 0.15802996 0.23159933 0.10632883 0.9021513 0.11510204
0.34427714 0.32651168 -0.70318836 0.2854549 0.5322816 -0.36378577 -0.26192182 -0.18522774
0.63205683 0.27419162 0.025374524 0.18978545 -0.120053485 0.34946382 0.46180028 1.0671742
0.61436385 0.3111002 -0.4768064 0.2084551 0.12126141 -0.89449847 0.23893309 -0.88763833
-0.103466764 0.27523145 0.1173047 0.6526214 0.89556205 -0.12236928 -0.5713275 -0.032992877
0.19370943 0.5074704 -0.25856104 -0.09754501 0.00036495883 -0.08931068 0.788982 0.38327602
-0.012682637 0.2299817 -0.32889727 0.5504413 -0.23043469 0.13521472 -0.38809365 0.16864857
0.40785265 0.26396924 0.05854479 -0.4066674 0.44391203 0.40655825 -0.12363941 0.15693483
0.8479175 0.73084664 -0.83017176 -0.11216406 0.034498733 0.42009246 0.271283 -0.7887241
-0.082005925 -0.34573627 -0.04615725 -0.5192485 -0.81064314 0.11703773 0.01569707 -0.6401786
0.25425348 -0.07526488 0.4345404 -0.05377922 0.08759597 0.15160178 0.42047074 0.41828856
00000000: b641 953e 4896 5f3e 18a1 363f e0a2 3c3f
00000010: 1a39 2d3f 9fb7 e1be ef71 08be 673e f13d
00000020: 8051 90bb 67e1 633f 74c2 853e 4a62 1abe
00000030: fdd4 79be 3112 b43e a28f 4d3f 3bee 3dbe
00000040: cf5f 6e3d 06c2 50bd 83da 96bd 6a4c 633f
00000050: 4a90 50be fc6b b03e e140 f5be 8fed 1dbe
00000060: 3e7b ca3e 6dcb 1b3f 6cdf 4c3f afae f4be
00000070: dd60 d2be 2cb1 153e fdef edbd 3732 2a3f
00000080: 61a2 993e 5c22 bb3d c92b 3abf c544 95bd
00000090: a9bf 483e 5937 c63e 8a45 d3bd 1dba c23d
000000a0: be55 24bd ae19 55bf 0e00 19bf 34c7 fcbd
000000b0: 49ce 80bf 21ca 593e 74aa 0bbf 59af d1be
000000c0: 21b5 eebe a816 403f 0586 923e 6184 73be
000000d0: 64fa 9e3e d582 df3e 7689 ccbe 11f5 07bf
000000e0: d714 eb3e 5cb0 283f f826 23be a9c4 1b3e
000000f0: faed 143e f999 913e 7c76 173f 4881 363e
00000100: 531a 9c3e 8a13 373e bd6d 2dbf 6749 c13d
00000110: a55c 75be d09a c83c 973e 333f 2597 9ebd
00000120: b1b5 57bd 79e0 a73e a1ea 443f a5b7 c8be
00000130: 7e75 4cbe 2cce f73e 7296 0fbf 1893 b0bc
00000140: 9003 2a3d 7bb8 ca3c 76f5 abbe 41ff 323f
00000150: 25f2 98be 43a8 453f 4fd7 a6bd 225f 203e
00000160: 48d4 90be 5049 8c3e fe90 f23e b71a c43e
00000170: 0de7 debe f65e 253f 27b9 b5be 3585 733e
00000180: 751c 0bbe c2b1 8bbe 6778 5f3f 3b01 94be
00000190: 7b21 c73b 8e14 323d 2ef2 f13e 53cb bb3e
000001a0: 4496 503e a1ec 393f a1a2 93bf 854e c9bd
000001b0: 4150 ddbe b91e d13f d8cc 7f3d c38e 8fbe
000001c0: bf34 fcbd 3580 ba3e c380 373f dcd9 bf3e
000001d0: eb27 603e 0d44 193f 7540 97bd 573e 9d3f
000001e0: 9d6a bcbd 75c6 733f a575 613e 9c79 d4be
000001f0: 1b4d 483f 8f43 50bd fcd7 3d3e 350a c53d
00000200: 8ff0 233f 8f0d 133f 5ec8 883d 7ebd f93d
00000210: d5e9 373f 9043 eb3e b715 22bf 3694 2dbe
00000220: a810 f0be 247a 3fbe db69 963f 13dd aebe
00000230: a030 373d 5148 8abe 31b2 bfbe 88e4 1dbe
00000240: 8e6c 96bf a9f6 ba3e 8d65 16bf 07a2 1abf
00000250: 97f2 29bf c874 20bf 3266 75be 1679 76bf
00000260: ff7c cb3e a5ab da3c 6153 1c3e d476 3abe
00000270: cc54 293e 058c 3a3f 19b6 49bf 354a 123f
00000280: 2a3a 553d 4915 d03c 7cd8 1f3f b17a ecbe
00000290: b662 723f 5ac2 49be dcd1 f9bd 0c78 a83e
000002a0: aaf3 d2be f51b b83d 2342 8e3d 9bd2 213e
000002b0: 6028 6d3e eec2 d93d 63f3 663f 9eba eb3d
000002c0: 1845 b03e 8a2c a73e 2704 34bf 2527 923e
000002d0: 9b43 083f 2142 babe 9e1a 86be 57ac 3dbe
000002e0: 7ace 213f d862 8c3e 3cde cf3c 1e57 423e
000002f0: 9ade f5bd ecec b23e 1671 ec3e 2a99 883f
00000300: f346 1d3f 8748 9f3e f81f f4be 4175 553e
00000310: e757 f83d dafd 64bf e0aa 743e 443c 63bf
00000320: 62e6 d3bd 23eb 8c3e 723d f03d 3212 273f
00000330: 8e43 653f bf9c fabd 8542 12bf 8a23 07bd
00000340: c45b 463e 95e9 013f 1d62 84be aec5 c7bd
00000350: f257 bf39 85e8 b6bd b9fa 493f c13c c43e
00000360: d6ca 4fbc 5380 6b3e 3965 a8be b9e9 0c3f
00000370: 12f7 6bbe ba75 0a3e 36b4 c6be 36b2 2c3e
00000380: 10d2 d03e fa26 873e a9cc 6f3d b636 d0be
00000390: 7048 e33e 6728 d03e a936 fdbd 86b3 203e
000003a0: 1f11 593f c418 3b3f 2386 54bf 45b6 e5bd
000003b0: 8b4e 0d3d 5c16 d73e 9be5 8a3e d3e9 49bf
000003c0: b9f2 a7bd 5804 b1be 620f 3dbd 78ed 04bf
000003d0: 4f86 4fbf 7ab1 ef3d 2497 803c bfe2 23bf
000003e0: 832d 823e 7924 9abd 147c de3e 9947 5cbd
000003f0: 8465 b33d 7f3d 1b3e f147 d73e eb29 d63e

output_embeddings.weight f4 [562, 100]
-0.13460787 0.6582113 0.06562527 -0.3407023 -0.020724492 0.2699362 -0.16710167 0.21055965
0.22676027 0.3960215 0.2949217 -0.5216791 0.14422594 -0.4704883 0.11124013 0.47670418
0.5891363 0.5519747 -0.68186575 0.01420698 0.16785826 0.5433953 -0.7618289 -0.33710507
0.43656307 0.012203962 -0.0063047362 0.58800834 0.6455194 -0.678783 -0.15128528 0.10170541
0.52246577 0.24616256 -0.2401974 -0.24445114 0.47207385 0.48804593 0.5058973 -0.087714836
-0.035382204 -0.758123 -0.80752754 -0.76985824 -0.27425355 0.008065666 -0.08343812 -0.6382211
0.09899474 0.1709379 -0.21020104 0.515938 -0.0043698843 -0.36450297 0.33475024 -0.22004378
0.37204662 0.30371624 0.5863948 -0.4912205 0.18490587 0.32032377 -0.02283267 -0.41199
-0.5473847 0.49021778 -0.29234618 0.41212928 -0.9698657 0.30412498 0.4807656 -0.21458323
-0.3615236 -0.28141347 0.45221528 -0.38988882 -0.5858282 0.68589133 0.8138864 -0.065385245
-0.06326622 0.25020558 -0.07780976 0.4693364 0.410966 0.5846124 -0.37165767 0.5081107
-0.8770504 -0.19763035 0.03624315 0.12356627 0.27319464 0.1329279 -0.106849 0.8733576
-0.2547228 -0.2643551 -0.21189691 -0.82774776 -0.5267577 0.4444231 0.21487375 -0.039673753
0.49802497 0.48923433 0.18458287 0.5762017 0.60097003 0.18703195 0.5668117 -0.28822213
0.4615869 -0.45777777 0.17310873 0.34352523 -0.40075877 0.85378116 -1.218142 -0.08832007
0.4911941 1.0325453 -0.7654403 0.20334329 0.74151033 0.78167444 -0.432456 0.191784
0.07968378 0.23994577 -1.3251321 -0.09085142 0.10356897 0.092593364 -0.47466683 0.37577933
0.7273155 -0.60011524 -0.06724872 0.30812785 0.72958815 -0.13180195 -0.85368663 0.49318427
0.37110022 0.1406895 -0.1306491 -1.254349 -1.1136763 -0.0028038882 -0.82727695 0.20413344
0.19669421 -0.11475446 0.19827145 -0.16730222 -0.14903937 0.56526077 0.84831643 0.44332382
-0.39749828 0.57541776 0.43639266 0.30895558 -0.36540186 0.34023547 -0.5144497 -0.5338538
0.019744394 0.02231135 0.22312398 -0.2777939 -0.4543066 -0.80216014 0.31625494 -0.8429958
-0.35219088 0.45054433 0.32821152 0.20369382 0.12344875 1.1134368 0.19354549 -0.32243717
0.42529032 0.10452769 -0.20640825 -0.0597292 -0.468342 0.77183783 -0.31353995 -0.14966188
-0.3521806 -0.36356598 -0.14904657 1.0128545 -0.5182404 -0.43915352 0.74335283 -0.5104555
0.40825692 0.7438474 0.37718236 0.021473294 -0.13577108 0.052227132 -0.7442715 -0.022874568
0.19419481 0.08308821 0.14101756 -0.70871663 -0.1932183 -0.4008924 0.34315664 0.44627842
0.026754642 0.17996696 -0.6642797 0.013484874 0.0056519336 0.70672154 0.13334446 -0.85501397
-0.029547418 0.5653113 0.558789 0.5083007 0.30417922 -0.3976847 -0.519357 -0.04493073
0.38403305 0.015114846 -0.25854355 -0.044625733 -0.08243242 0.062342755 0.22207795 0.5972443
-0.2496185 -0.64245814 -0.6165526 -0.7114466 -0.13807844 0.2420799 0.10234409 -0.6807917
-0.713458 0.046676233 -0.17055343 0.5106397 0.015242851 -0.0030079721 -0.12692322 0.22139634
00000000: a5d6 09be 8980 283f 8b66 863d 8870 aebe
00000010: 69c6 a9bc 1435 8a3e b31c 2bbe f39c 573e
00000020: d833 683e 54c3 ca3e faff 963e c38c 05bf
00000030: f7af 133e d8e3 f0be ded1 e33d 9212 f43e
00000040: a3d1 163f 374e 0d3f c18e 2ebf 65c4 683c
00000050: 09e3 2b3e f41b 0b3f 3807 43bf 0999 acbe
00000060: 3285 df3e 20f3 473c f697 cebb b787 163f
00000070: c240 253f b9c4 2dbf 87ea 1abe ed4a d03d
00000080: 51c0 053f 0a12 7c3e 4ff6 75be 6651 7abe
00000090: aab3 f13e 28e1 f93e 7c82 013f d6a3 b3bd
000000a0: eeec 10bd 5914 42bf 20ba 4ebf 6e15 45bf
000000b0: f66a 8cbe db25 043c 9be1 aabd 7562 23bf
000000c0: c1bd ca3d 580a 2f3e f13e 57be 8314 043f
000000d0: 3f31 8fbb 22a0 babe 6264 ab3e 2853 61be
000000e0: e57c be3e b280 9b3e f81d 163f 4181 fbbe
000000f0: f757 3d3e 7a01 a43e 940b bbbc 5af0 d2be
00000100: 6721 0cbf d3fd fa3e 66ae 95be 9c02 d33e
00000110: 1e49 78bf 45b6 9b3e e926 f63e b5bb 5bbe
00000120: 9f19 b9be 6d15 90be c388 e73e 829f c7be
00000130: d6f8 15bf 9396 2f3f dc5a 503f b3e8 85bd
00000140: b891 81bd f21a 803e b95a 9fbd dc4c f03e
00000150: 236a d23e 29a9 153f ea49 bebe 8b13 023f
00000160: 6086 60bf 9c5f 4abe b273 143d 5010 fd3d
00000170: 2be0 8b3e 401e 083e a6d3 dabd 5d94 5f3f
00000180: 076b 82be 8d59 87be 81fb 58be 47e7 53bf
00000190: 98d9 06bf 6d8b e33e dd07 5c3e f280 22bd
000001a0: 21fd fe3e ec7c fa3e 4b03 3d3e f481 133f
000001b0: 2cd9 193f 4e85 3f3e 921a 113f da91 93be
000001c0: 1e55 ec3e d961 eabe 6a43 313e 8ae2 af3e
000001d0: 4130 cdbe 6791 5a3f 14ec 9bbf 27e1 b4bd
000001e0: cb7d fb3e 722a 843f e5f3 43bf 3939 503e
000001f0: 9fd3 3d3f d11b 483f df6a ddbe 0663 443e
00000200: 4031 a33d 58b4 753e ee9d a9bf 4f10 babd
00000210: f81b d43d 97a1 bd3d 8807 f3be 2666 c03e
00000220: 5931 3a3f 27a1 19bf b2b9 89bd efc2 9d3e
00000230: 4ac6 3a3f 17f7 06be 358b 5abf a682 fc3e
00000240: d900 be3e e910 103e e1c8 05be 828e a0bf
00000250: f28c 8ebf 70c1 37bb 6cc8 53bf 5b08 513e
00000260: 356a 493e 6304 ebbd ac07 4b3e 4651 2bbe
00000270: c79d 18be eeb4 103f 442b 593f 57fb e23e
00000280: e584 cbbe 944e 133f dc6e df3e 6d2f 9e3e
00000290: f415 bbbe 5833 ae3e fab2 03bf a5aa 08bf
000002a0: ffbe a13c 4bc6 b63c 9d7a 643e 013b 8ebe
000002b0: e09a e8be 5e5a 4dbf 2bec a13e 93ce 57bf
000002c0: 5d52 b4be bfad e63e 570b a83e 1d95 503e
000002d0: b3d2 fc3d 1985 8e3f ca30 463e 7c16 a5be
000002e0: a7bf d93e 9d12 d63d af5c 53be 9ba6 74bd
000002f0: 86ca efbe 2a97 453f 4f88 a0be f740 19be
00000300: 0451 b4be 5225 babe aa9f 18be 37a5 813f
00000310: 67ab 04bf bbd8 e0be 5f4c 3e3f 36ad 02bf
00000320: 0d07 d13e c96c 3e3f 0c1e c13e c3e8 af3c
00000330: 9307 0bbe 1eec 553d 9488 3ebf 7263 bbbc
00000340: 01db 463e 272a aa3d e866 103e 746e 35bf
00000350: 05db 45be c541 cdbe 3ab2 af3e 9b7e e43e
00000360: 8d2c db3c 4249 383e 3c0e 2abf a9ef 5c3c
00000370: db33 b93b b4eb 343f 738b 083e 32e2 5abf
00000380: 6d0d f2bc 3eb8 103f cc0c 0f3f ff1f 023f
00000390: 61bd 9b3e 549d cbbe 95f4 04bf 4909 38bd
000003a0: fb9f c43e 42a4 773c d25f 84be 79c9 36bd
000003b0: 54d2 a8bd 1e5b 7f3d 6768 633e 01e5 183f
000003c0: fe9b 7fbe 2378 24bf 64d6 1dbf 5d21 36bf
000003d0: 6f64 0dbe cbe3 773e c799 d13d 5d48 2ebf
000003e0: 2fa5 36bf 942f 3f3d 8fa5 2ebe 49b9 023f
000003f0: 27bd 793c 6621 45bb 29f8 01be b9b5 623e
