Models/model.pt (torch, 331980 bytes, 2 tensors)

input_embeddings.weight f4 [413, 100]
00000000: 85c6 dbbe ff52 5cbf 32bb e63e 0a79 d93d
00000010: fbf3 60bf 50da 9fbd b74f cebe a4e8 a03e
00000020: a897 283f d42d f7bc c96a 95bc 41bb 2d3e
00000030: c340 113f 0e83 d23e e485 493f a1fa 603e
00000040: d118 66be d8bc 693e 52e1 1cbf cebe 81be
00000050: d853 053f 28d3 9a3e 4dff d73e 0d76 35be
00000060: b981 913f 1ab4 20bf 1927 99ba 970b 5b3f
00000070: d1a7 33bf ec29 af3d 52be 2b3e cd17 5dbf
00000080: 80fb 1f3f 1db4 c9be 6d83 5b3f 8c45 2f3f
00000090: 9a9b eabe 4b58 fc3e c349 a73c be50 86be
000000a0: bd65 97bd 99e0 4d3e ea94 83be 6a7d 6b3f
000000b0: 4c5e c43e 7131 0a3f 7498 b33e 25ad 76be
000000c0: 5df3 053f 053d bbbe 866e 00bf c7e4 14bf
000000d0: 11dd 4abf 70f4 203e 8175 183e d2a3 f7be
000000e0: c26e 393e 5685 61be b721 a1be 2101 8bbf
000000f0: ecec 13bf 9238 c13e 59c7 47bd e01d 683f
00000100: 9178 293f 81e4 203f 8718 fe3e 3019 3d3e
00000110: 370a 53be 6ea0 2b3f 2e8a 833f 8769 99be
00000120: 1b33 89bf 995a 1c3f b7d6 e13e b463 f3be
00000130: 32a7 163e 1dda 563f 0aa0 733e 8b7c dd3d
00000140: dbcb bbbc 418f c3bd 91af eb3e 3b80 3ebf
00000150: ab02 1e3e 6c20 09bf cf19 cebe 9b7f e8bd
00000160: f63b 193f a093 f23e e2aa 9dbf e385 643f
00000170: e5f1 003f 405c 0fbd 1b78 073f 888b d0be
00000180: ca2d ea3e 1d7d 48bf 49cb 64bf 824a e6bd
00000190: 90d0 12bf e5a2 1fbf 6bb4 523f 80af c93e
000001a0: 7fe7 53bf 5665 ecbd 95c7 a1bd e391 44bb
000001b0: 81cd c13e 7372 113e 3829 27be 17d8 0f3f
000001c0: b61f ba3e 12e5 85be 347c f13e 4d59 7dbe
000001d0: 8613 bfbe 1204 9cbd 41df d7be 63f9 16bf
000001e0: f200 183e 7f68 823e 1d2b 853e 9001 df3d
000001f0: 5d2c 803f 2e8a 50be ff0c 4e3d da92 a33e
00000200: 97a0 dd3d a23d 0f3f 029d b73d 9e31 ddbe
00000210: c82b ed3e e0c5 ae3d 43d8 703d ecea 3b3f
00000220: ab02 513e 8189 ae3e 11b4 243f e446 2b3e
00000230: c225 40be 2cc7 a0be 5b98 f73e 85b5 2f3f
00000240: fd58 163e a503 e7bd 1ede a93e f38b 9b3d
00000250: eddb 663f 8b0f 8dbe 4d33 5f3f cfe5 533e
00000260: 9d02 aabe a81e c0be 1f98 8e3e 13a3 d5be
00000270: 8771 bb3c 2c55 51bd 2b7b 0e3f 62d1 dbbe
00000280: 0b77 c13e 0bf3 8f3e bf47 533d 8bcd f83e
00000290: d80b fb3e 07b3 073f 90f0 f03e 5b8e 2bbe
000002a0: 8661 4cbd 59f9 753f ae6c 243f 4fa3 51be
000002b0: ab43 b4be eac2 993e 8bb6 1e3f 16aa c4be
000002c0: ea67 863e f497 8d3f 5be3 1cbc 97fa acbc
000002d0: 2b1d 8d3d 3b2f ab3e 1dab 13bf 239c 13bf
000002e0: 1c7e 843e c0df a5be 4f87 81be d5f5 45be
000002f0: 7a54 2f3f 506d fd3e 9364 44bf db86 9c3e
00000300: 14e8 103f b5bf ab3e 0042 053f 0c4f ba3e
00000310: 8148 4d3e 72b7 533e bcec 12bf c42a d7be
00000320: 0d5d 80bf eb3e 57bf 55fd 873f 2629 fb3e
00000330: 1c26 17bf 771c dabe 56c2 57bf 668d 923e
00000340: 833f 8d3e 245a 043f c8ab 68be 0dbe 923d
00000350: 0148 fb3e 37ec 6ebd e52f 923e d210 653d
00000360: db34 22bc 8ef5 b8bd 7877 5dbf d878 35bf
00000370: f315 9c3e 5288 8e3c 3788 343f f2a7 733d
00000380: 2772 893f d25c febe 7031 703e 7ca8 0c3f
00000390: fd60 5cbf 51c4 fd3e a4a8 d93e 44fb 17bf
000003a0: d1c0 133f 8d94 9fbe 86c3 a3ba 17de 7c3f
000003b0: 2ca2 82be e96f ac3e eba7 393f 8fde 953e
000003c0: e66f b2bc 4463 1d3e ecfd 643e bfbc 4d3f
000003d0: 1e39 6b3e 96cd db3e 80df 3a3e 5c35 073d
000003e0: 284b 0c3f d504 b6be a778 0f3f bfe2 373e
000003f0: bcc2 53be bb29 1c3e 87a9 4b3b 6f85 d6be
-0.42924896 -0.8606414 0.45064694 0.106187895 -0.87872285 -0.07805312 -0.40295193 0.3142749
0.6585641 -0.03017322 -0.018239396 0.16965963 0.56739444 0.41115612 0.78719926 0.21970607
-0.22470404 0.22825944 -0.6128131 -0.25340885 0.5208106 0.30239224 0.42186967 -0.17720814
1.1367713 -0.62774813 -0.0011684626 0.8556456 -0.7017794 0.08552918 0.1677182 -0.8636444
0.62493134 -0.39395228 0.85747415 0.68465495 -0.4582184 0.49286112 0.020420915 -0.26233476
-0.07392452 0.20105208 -0.2569955 0.9198824 0.38353193 0.5398169 0.3507725 -0.24089487
0.5232447 -0.36569992 -0.50168645 -0.58161587 -0.7924357 0.15718246 0.14888574 -0.48367172
0.18108657 -0.2202352 -0.31471035 -1.085972 -0.5778339 0.37738472 -0.048774097 0.90670586
0.66199595 0.6284867 0.49628088 0.1846664 -0.20609365 0.6704167 1.0276544 -0.29963323
-1.0718721 0.6107574 0.44109127 -0.47537005 0.14712217 0.83926564 0.23791519 0.1081477
-0.022924354 -0.09548808 0.46032384 -0.74414414 0.15430705 -0.53565097 -0.40254065 -0.11352464
0.5985712 0.47378254 -1.2317774 0.89266795 0.503691 -0.035000086 0.5291764 -0.40731454
0.4573806 -0.7831591 -0.8937269 -0.1124468 -0.5734949 -0.6235793 0.82306546 0.39391708
-0.8277511 -0.11542766 -0.078993954 -0.0029994182 0.378521 0.14203815 -0.16324317 0.561891
0.3635232 -0.2615133 0.47165072 -0.24741097 -0.37319583 -0.07617964 -0.42162517 -0.58974284
0.1484411 0.2547035 0.26009455 0.1088897 1.0013539 -0.20365211 0.050305363 0.31947976
0.10821646 0.5595342 0.08965494 -0.43201917 0.46322465 0.085338354 0.058799993 0.7340534
0.20411174 0.34089282 0.6433726 0.16726261 -0.18764403 -0.31401956 0.48358425 0.6863635
0.14682384 -0.11279992 0.33177274 0.075950526 0.9017933 -0.2755092 0.87187654 0.20693134
-0.3320512 -0.3752339 0.27850434 -0.41725978 0.022881282 -0.051106617 0.5565669 -0.42933184
0.37786135 0.28115115 0.051582094 0.48594317 0.49032474 0.5300755 0.47058535 -0.16753523
-0.049897693 0.960836 0.6422833 -0.20472454 -0.35207877 0.3003152 0.6199729 -0.38411015
0.26251155 1.1061997 -0.00957569 -0.021115584 0.06890329 0.3343447 -0.57682973 -0.5766012
0.25877464 -0.3239727 -0.25298545 -0.19332059 0.68488276 0.4949746 -0.76715964 0.30571637
0.56604123 0.33544698 0.52053833 0.36388433 0.2004719 0.20675448 -0.5739248 -0.42024815
-1.0028397 -0.8408038 1.0624186 0.4905483 -0.59042525 -0.42599842 -0.8428091 0.28623503
0.27587518 0.51700044 -0.2272178 0.071651556 0.49078372 -0.05833074 0.28552166 0.055924244
-0.009900297 -0.09031211 -0.8651042 -0.7088752 0.30485496 0.017398987 0.7052035 0.059486337
1.0737962 -0.4968019 0.23456359 0.54944587 -0.8608549 0.4956384 0.42511475 -0.59367776
0.5771609 -0.31168023 -0.0012494184 0.9877638 -0.25514352 0.3367913 0.7252185 0.2927136
-0.021781873 0.15369898 0.22362489 0.8036613 0.22971007 0.42930287 0.18249321 0.03300987
0.5480218 -0.35550562 0.56043476 0.1795759 -0.20679754 0.15250294 0.0031076388 -0.41898677

output_embeddings.weight f4 [413, 100]
00000000: e2f3 7ebe 48f5 ba3d 5e02 5e3e 89dd 59bc
00000010: 0537 54be b000 213f 85cf 983e 2a64 8e3f
00000020: 0157 03bb b06c a5be 110a 993e 134d 0b3e
00000030: 0ba8 463e 1862 8ebf f988 9f3e 8cfe 1f3e
00000040: 141b a8bf e39b a63e 4f64 fb3d 3c2f 33bf
00000050: c0da 53bf a626 a03f fe63 0e3f 80f6 25bf
00000060: 2979 d13e 6513 d23e 74a3 5c3f 20c0 b0be
00000070: e219 f3bd 57de ab3e a8eb cbbe 9047 e7be
00000080: 35bd 06bf 252e 053f 2572 373f ceec 1a3f
00000090: 91f8 ed3e de1e 483f b958 973e 66c8 3dbd
000000a0: 464a 393f 1414 4b3e c3d0 48be da25 d5bd
000000b0: 6472 1d3f a171 1f3f b94a cbbe 7713 033e
000000c0: a88f 1b3e fc57 39bf 93cf c73e eb31 ff3c
000000d0: 1fb3 9b3e 467d 6f3f c05d 193d 5c8f 1cbc
000000e0: e85e 483f e5e6 24bf a177 efbd 0515 3ebf
000000f0: 4290 e9bb 688a 143f 0487 4a3e 2d9d 543f
00000100: af7f 2e3f 2802 c33e 9d2d 0fbc 922d 883f
00000110: b59f 10bf 70af d63e c09f 0e3f 5bf7 7f3e
00000120: 4583 a93e 80fb 6bbe 7eae 933f 3762 02bd
00000130: c2b1 8abf a45f 433e 822b 903f e3d1 5d3f
00000140: 46d8 3d3f b3fa eb3e 5047 453e 5846 033e
00000150: 618f f43e 6f84 fa3e 1583 05be 2082 0abf
00000160: d813 803e 7435 963e 8830 0dbf ccc2 07bf
00000170: 51bf a83e 728a e5be fe70 07bf 5bc0 2e3f
00000180: 89ea b3ba 0af6 173e f9f0 a0bd f7ca 8a3e
00000190: 1125 9c3d e4f6 1e3d 81ce bfbc 0801 babe
000001a0: 0103 9cbd 4b56 1bbf a19b febd 120f 473f
000001b0: 6afd 083f 30a4 b23e db88 363f a1fb 74be
000001c0: edee b3be 0038 3ebf 85ab 03bd 7587 473f
000001d0: e0a4 25bf dfb9 283f 76e2 4fbe e834 8dbe
000001e0: d2d9 99be 244b 583f 5caa 7a3e 0bdf 163f
000001f0: 39e5 1d3e 8dc1 783d be67 663f 995f 5fbd
00000200: d764 d7be d772 2b3f 98eb 53be be09 fabe
00000210: 1c8f 08bd ea83 233e 536b a53e 50aa e93e
00000220: 88fe ecbc 8148 0a3f 9dea 6d3d 7f14 75bc
00000230: 973b 5b3f 2a43 953e 75ca 2b3f b353 6f3e
00000240: de7e 023f 9ab1 373f 0dd8 dbbe c1a4 9a3e
00000250: 1923 47bd 589d 15bf d579 7c3d 460b 513e
00000260: e8ad 693e 815e 753f 3bb8 d9be 72f8 443d
00000270: 1248 783f 2693 cfbe adac a9be 0f3c ecbe
00000280: 0b6f febd df6d dd3c 16b1 193f 19db d33e
00000290: 4b9f 503f 6b4e b53d 0cf4 05be b0e3 373f
000002a0: ec91 57bf 15c2 723e 5630 c63e c2d5 eebe
000002b0: aebf 0e3e 494a 5fbe 5ad2 793f 2de4 54bb
000002c0: 8834 13bf 402a 2f3e 1681 953f 8237 433e
000002d0: 0ee2 e93e 3300 2c3f 3ff6 7a3e 5cda 243e
000002e0: 0c54 413f b7ef 1f3e 0a0f 43bf 8a7f 11bf
000002f0: 73c7 85be 0f25 e8bd dd5c 81be 25cd 60bd
00000300: 2747 b63e 86d0 23bd dc0d 11bf 82e5 4b3e
00000310: 4a7c 153f 22dc 4b3d 48ed 3abe 4fe9 533d
00000320: 7d90 c7be 893b d93d 8c9e 653d f8b2 bdbe
00000330: df5c 3d3e 0a95 e1be d49f 3fbc bf09 893f
00000340: 8c31 583d 5589 72be 3e85 ee3e 5a5c 0b3f
00000350: eef6 2f3d a9c9 07bf fdee 82be 579c af3e
00000360: a37b 98bf 9bf2 583f 4e28 fa3d 7515 30bf
00000370: 46db 74be d3b3 913f 4225 1b3e dab1 243e
00000380: acb7 543e 9f4b 7d3e 39a3 6c3e 616e a73d
00000390: c609 e23d b3ae 6e3f ac9a 2abf 2c84 1cbf
000003a0: fe1a 37bd 16bc 053f 2c7e 323f b86c a23e
000003b0: 18b7 0a3e 6638 033f 4245 703c be84 30be
000003c0: 703e 283f 27cf a1be a37c 123f cf73 1e3e
000003d0: 1ddd dc3e 7036 053f abb1 dcbe c1e9 e33e
000003e0: a1cf 633f ceb8 63bf 5cef 2e3e 4a41 f83d
000003f0: 1cba 103e 4002 f93e 6096 163f 990f d33d
-0.24897721 0.09128815 0.2168059 -0.013297447 -0.20724113 0.62891674 0.29845825 1.1124318
-0.0020040872 -0.32309484 0.29890493 0.1360362 0.19400041 -1.1123686 0.3115919 0.15624446
-1.3133264 0.32540807 0.12274992 -0.6999395 -0.8275566 1.2511795 0.55621326 -0.64829254
0.4091275 0.41030422 0.8618691 -0.3452158 -0.11870171 0.3356807 -0.3982823 -0.45171785
-0.52632457 0.52023536 0.71658546 0.60517585 0.46478704 0.781721 0.29559878 -0.046333693
0.7237896 0.19831878 -0.19610886 -0.1040761 0.6150267 0.6228276 -0.39705446 0.12800394
0.1519152 -0.7239988 0.39025554 0.031151732 0.30410096 0.9355053 0.037442923 -0.009555664
0.78269815 -0.6441482 -0.11692739 -0.74250823 -0.0071277926 0.5802369 0.19778067 0.8305233
0.6816358 0.38087583 -0.008738902 1.0638907 -0.56493694 0.41930723 0.5571251 0.24996702
0.33107963 -0.23045158 1.1537626 -0.031831946 -1.0835497 0.19079453 1.1263278 0.86648387
0.7415813 0.46089706 0.19265485 0.12819803 0.4776564 0.48929164 -0.13038285 -0.54104805
0.2501514 0.29337656 -0.5515218 -0.5303161 0.32958463 -0.44832188 -0.5290679 0.6826226
-0.0013726513 0.1483995 -0.07858462 0.27107975 0.07624257 0.038809672 -0.023413898 -0.36328912
-0.076177604 -0.6067855 -0.124320276 0.7775737 0.5351168 0.3489089 0.71302575 -0.23924114
-0.35143223 -0.743042 -0.032145996 0.77941066 -0.64704704 0.65908617 -0.20301232 -0.27579427
-0.30048996 0.84489655 0.2447905 0.58934087 0.15419473 0.06073146 0.9000205 -0.05453453
-0.42069122 0.66972107 -0.2069534 -0.48835558 -0.033339605 0.1596829 0.32308444 0.4563775
-0.028929964 0.5401688 0.058085073 -0.0149585 0.856378 0.29152805 0.671058 0.23371772
0.50974834 0.71755373 -0.4293827 0.30203822 -0.048617456 -0.5844321 0.061639626 0.20414457
0.22820246 0.95847327 -0.4252337 0.0480885 0.9698497 -0.40541953 -0.33139554 -0.4613957
-0.124235235 0.02702993 0.60035837 0.41378096 0.8149306 0.08852848 -0.13081378 0.718318
-0.84207034 0.23706849 0.38708752 -0.4664746 0.13940307 -0.21805681 0.97586596 -0.0032484636
-0.5750203 0.17105961 1.1680019 0.19064143 0.4568028 0.67187804 0.24507998 0.16098922
0.7551887 0.15618788 -0.7619482 -0.56835234 -0.2612873 -0.11335193 -0.25266162 -0.05488314
0.3560116 -0.039993785 -0.5666177 0.19911769 0.58392775 0.049770482 -0.18254578 0.051736172
-0.38977423 0.106070586 0.056059405 -0.37050605 0.18492459 -0.4405902 -0.011695821 1.0706099
0.052781627 -0.236852 0.4658603 0.5443779 0.0429601 -0.53042084 -0.2557296 0.34298965
-1.1912731 0.84745187 0.12214719 -0.6878274 -0.23911771 1.1383003 0.15150931 0.1608347
0.2077319 0.24735878 0.2310914 0.0817535 0.110370204 0.9323532 -0.6664226 -0.6113918
-0.044703476 0.5224012 0.69723773 0.3172357 0.13546407 0.5125793 0.01466495 -0.17238137
0.6572027 -0.31603357 0.5722143 0.15473865 0.43137446 0.5203619 -0.431043 0.44514278
0.8898869 -0.88953865 0.17083496 0.12121828 0.14133495 0.4863453 0.58823204 0.103057094
