Models/Poe_Model.pt (torch, 332004 bytes, 2 tensors)

input_embeddings.weight f4 [413, 100]
0	0xbeb042e9	-0.34426048
1	0xbe0b671e	-0.13613555
2	0xbecd1768	-0.4005692
3	0x3d5ddeb6	0.05416747
4	0x3e72da5e	0.23716113
5	0xbf51b75d	-0.81920415
6	0xbf3a722e	-0.72830474
7	0x3f2f5d99	0.68502194
8	0x3ddc521b	0.10757848
9	0x3f640a10	0.89077854
10	0xbf1857ae	-0.5950879
11	0xbf06517c	-0.52468085
12	0x3e798c70	0.24369979
13	0xbd8abd48	-0.06774384
14	0x3e40a04e	0.18811151
15	0x3e43c603	0.19118504
16	0x3ed9db9a	0.42550355
17	0x3e3daa39	0.18521966
18	0xbec9e8b4	-0.3943535
19	0xbe73e1b6	-0.2381657
20	0xbf0e3e40	-0.55563736
21	0x3cf14ce4	0.02945561
22	0x3efe0f7a	0.49621183
23	0xbdbc983f	-0.09208726
24	0x3f7bf029	0.9841333
25	0x3f64e088	0.8940511
26	0x3a722353	0.0009236831
27	0x3f29cffc	0.66332984
28	0x3f3b6a14	0.7320874
29	0xbf53a7ca	-0.826779
30	0xbe0ffba5	-0.14060839
31	0xbe29ef8e	-0.16595289
32	0x3ee6349e	0.4496202
33	0xbe3a71aa	-0.18207422
34	0xbf7723c5	-0.96538955
35	0xbf3d383f	-0.7391395
36	0x3f5b22f4	0.8560021
37	0xbf460935	-0.773578
38	0x3ea90197	0.33009025
39	0x3e067804	0.1313172
40	0xbf0ea7b8	-0.5572467
41	0x3c75d0b8	0.015003376
42	0xbdee3f2c	-0.11633143
43	0x3e2ee18a	0.17078224
44	0x3f05309f	0.52027315
45	0x3d88f68a	0.066876486
46	0xbe13cf4c	-0.14434546
47	0xbf360a88	-0.7110982
48	0xbe493051	-0.19647337
49	0xbe4aa266	-0.19788513
50	0xbec6fc81	-0.3886452
51	0x3e216de5	0.15764578
52	0xbd985202	-0.07437517
53	0x3e1e102f	0.15435861
54	0x3edaf02a	0.42761356
55	0xbddab43b	-0.106789075
56	0xbe82bec2	-0.25536162
57	0x3d80ec13	0.062950276
58	0x3f111a97	0.566812
59	0xbe5edbeb	-0.2176358
60	0x3ead094d	0.33796158
61	0xbf5c42f0	-0.8603964
62	0xbe91060f	-0.28324935
63	0x3d5a6a3b	0.053323966
64	0x3eb53be4	0.35397255
65	0xbdd1a723	-0.10236957
66	0x3e83c42e	0.2573561
67	0xbd493b57	-0.049128857
68	0x3ed2f8f2	0.41205555
69	0xbdbff2de	-0.09372495
70	0x3f0fa914	0.5611737
71	0xbec992b8	-0.3936975
72	0xbf1ad280	-0.6047745
73	0x3f877f23	1.0585674
74	0x3f626780	0.8843918
75	0x3d213a77	0.039362397
76	0xbf1eae20	-0.61984444
77	0xbf835310	-1.0259724
78	0x3f552979	0.8326641
79	0x3f4a339b	0.78984994
80	0xbf4ed2de	-0.8079051
81	0xbebfb35b	-0.37441525
82	0xbee1129f	-0.4395952
83	0x3eae2c19	0.3401802
84	0x3f0b896a	0.5450655
85	0xbef49556	-0.47770184
86	0x3f1d7b1e	0.61515987
87	0xbed71b4b	-0.4201301
88	0x3e22ceaf	0.15899156
89	0x3caab00d	0.0208359
90	0xbe0dbd0d	-0.13841648
91	0x3f87175f	1.0554007
92	0x3f10f480	0.5662308
93	0xbded5a20	-0.115894556
94	0xbe7fb2f3	-0.24970607
95	0x3d850586	0.06495194
96	0x3f15a790	0.58458805
97	0xbf2d4edb	-0.6769845
98	0xbed03f2e	-0.40673202
99	0xbaa72676	-0.0012752551
100	0xbf8783a4	-1.0587049
101	0xbd308e62	-0.043104537
102	0x3e12c9b5	0.14334758
103	0x3ee053bf	0.43813893
104	0x3f5868cc	0.8453491
105	0xbeac8c0d	-0.337006
106	0xbf43eab9	-0.76530033
107	0x3f869070	1.0512829
108	0x3e80af36	0.25133675
109	0x3f000160	0.500021
110	0x3ea85e2a	0.3288434
111	0xbe5e62f3	-0.21717434
112	0x3eadac3c	0.33920467
113	0xbef05a8b	-0.4694408
114	0x3f0d1e1b	0.5512406
115	0xbed4638d	-0.414822
116	0x3e8588eb	0.26081023
117	0x3efcd5ac	0.4938177
118	0x3f0228a7	0.5084328
119	0xbf2abd48	-0.6669507
120	0xbf07f660	-0.53110313
121	0x3e195345	0.14973171
122	0x3ebf718f	0.37391326
123	0x3ea549c5	0.32282844
124	0x3efb592b	0.49091467
125	0x3f2469fb	0.64224213
126	0x3db5c292	0.08875002
127	0x3f2e70f2	0.6814109
128	0x3f13486a	0.5753237
129	0x3c3a7e12	0.011382597
130	0x3e61d3d2	0.2205346
131	0x3e06ec99	0.13176192
132	0x3dfa25f8	0.12214273
133	0xbdccbaaf	-0.099965446
134	0xbfcad436	-1.5846012
135	0xbe89ab89	-0.26888683
136	0xbd28cd9b	-0.041211706
137	0x3f0ce3d1	0.5503512
138	0x3f3e4898	0.7432952
139	0xbd284d45	-0.041089315
140	0xbec7a281	-0.38991168
141	0x3f09bc1c	0.5380266
142	0xbec59455	-0.3858973
143	0x3d6e5b21	0.058192376
144	0x3fa8200e	1.3134782
145	0x3e9dd931	0.30829766
146	0xbcc9eb3b	-0.0246483
147	0xbecc9a99	-0.399617
148	0xbe827f7e	-0.25487894
149	0xbf3ba7cc	-0.7330291
150	0xbe43549a	-0.19075242
151	0xbea58a2f	-0.32331988
152	0x3eef595f	0.46747872
153	0x3e8003c1	0.25002864
154	0x3eb87e2b	0.3603376
155	0x3d83f67e	0.06443499
156	0x3ee91ed5	0.45531335
157	0xbe91ba1b	-0.284623
158	0x3efb62e7	0.49098894
159	0xbe9684e0	-0.2939825
160	0x3e4c2bf2	0.19938639
161	0xbf4437a7	-0.7664742
162	0xbe2dbb84	-0.16966063
163	0xbf0c1f03	-0.5473482
164	0x3f5e46a8	0.8682656
165	0x3e5a1fbf	0.21301173
166	0x3e932735	0.2874085
167	0xbe92d086	-0.28674716
168	0x3e4099fa	0.18808737
169	0xbca421ee	-0.02003571
170	0x3f09530d	0.5364235
171	0xbedfc1cc	-0.43702543
172	0xbf5d5c2b	-0.8646876
173	0x3f8b3e49	1.0878383
174	0x3f13a217	0.57669204
175	0xbf2f1504	-0.6839144
176	0xbc290648	-0.010316439
177	0xbf0672fb	-0.52519196
178	0x3f79f96f	0.9764623
179	0x3f19b1e2	0.6003705
180	0xbf74d78c	-0.956414
181	0x3ddfef4e	0.109343156
182	0xbe1bc6f7	-0.15212618
183	0x3dc32ed8	0.09530419
184	0x3f53f550	0.8279619
185	0xbf20954c	-0.6272781
186	0x3eba90a9	0.36438492
187	0xbf6a7af1	-0.91593844
188	0xbbd6133f	-0.006533056
189	0xbe979abb	-0.29610237
190	0xbf04cf57	-0.51878875
191	0x3e881723	0.26580152
192	0x3eff0294	0.49806654
193	0xbe3affb7	-0.1826161
194	0xbde7cecc	-0.1131874
195	0x3ca280d0	0.019836813
196	0x3f1d96df	0.61558336
197	0xbebd575a	-0.36980706
198	0x3c369793	0.011144537
199	0x3ed418f2	0.41425282
200	0xbef567c1	-0.4793072
201	0xbed81b64	-0.42208397
202	0x3d29ceb5	0.041456897
203	0xbcc54a63	-0.024083322
204	0x3f19ed7c	0.60128
205	0xbe0983f9	-0.1342925
206	0xbeeffdec	-0.46873415
207	0x3f064499	0.5244842
208	0x3eb68ff4	0.35656703
209	0x3efad2c2	0.4898892
210	0xbeb80675	-0.35942426
211	0x3e3c81cb	0.18408887
212	0x3ea0ca3c	0.31404293
213	0xbf1bce3b	-0.6086156
214	0x3e4c88ac	0.19974011
215	0x3d48e44b	0.049045842
216	0x3eef9f4f	0.4680123
217	0x3f4f9f2e	0.81102264
218	0x3e2ed117	0.17071949
219	0xbf12b7ca	-0.5731169
220	0xbec0ee91	-0.37682012
221	0xbae4dfef	-0.0017461757
222	0x3f4e1651	0.805028
223	0x3e9719cd	0.29511872
224	0x3ef9d4ad	0.4879507
225	0x3f4f3c1f	0.8095111
226	0xbd6d12ff	-0.057879444
227	0x3f0517c4	0.5198939
228	0x3f351811	0.7073985
229	0xbe865f25	-0.26244465
230	0x3e0db91b	0.13840143
231	0xbe5f872e	-0.2182891
232	0x3e3eb366	0.18623123
233	0x3e43d6c5	0.19124897
234	0xbf2e7fd1	-0.6816378
235	0xbd0aa979	-0.033853028
236	0x3ef8c5da	0.4858845
237	0xbcb294be	-0.021799441
238	0x3e914994	0.28376448
239	0xbcd87433	-0.026422596
240	0xbe9895bf	-0.29801747
241	0x3e682750	0.22671247
242	0x3dd0a8bd	0.10188434
243	0x3eda17a1	0.42596152
244	0x3f77c8ed	0.96790963
245	0x3e2c3818	0.16818273
246	0xbe520bbb	-0.20512287
247	0xbf36c7a0	-0.71398354
248	0xbe2094f8	-0.15681827
249	0xbebc10dd	-0.36731616
250	0xbd97e036	-0.07415812
251	0xbeb7d4e8	-0.35904622
252	0x3f48a6cb	0.78379506
253	0xbf1db138	-0.6159854
254	0x3e9eaa57	0.30989334
255	0x3ed76025	0.4206554

output_embeddings.weight f4 [413, 100]
0	0xbea78caf	-0.3272452
1	0x3e5b9112	0.21442059
2	0x3f148f53	0.58031195
3	0x3f752bde	0.9577006
4	0xbd137717	-0.036002245
5	0x3ea5dfa6	0.32397193
6	0x3dae28c4	0.08503869
7	0x3ee82525	0.4534084
8	0xbca71299	-0.02039461
9	0x3eb64e65	0.35606685
10	0xbc456a3f	-0.012049257
11	0xbdbad6cb	-0.09123
12	0x3f8ed4c7	1.1158684
13	0x3e91597e	0.2838859
14	0x3f0e7e3f	0.55661386
15	0xbe14a463	-0.14515834
16	0xbe920d97	-0.28525993
17	0xbe2efffa	-0.17089835
18	0x3e9114d9	0.28336218
19	0xbec78900	-0.3897171
20	0xbea99226	-0.33119315
21	0x3f6c7027	0.9235863
22	0x3ec9b001	0.39392093
23	0xbe9fdd44	-0.312235
24	0xbc8e0c9e	-0.01734
25	0x3edc0527	0.4297268
26	0xbf20093f	-0.6251411
27	0xbd8a4b5d	-0.06752656
28	0x3f247a16	0.6424879
29	0xbf0a130d	-0.5393532
30	0xbf0324e5	-0.5122817
31	0x3f4f2074	0.80908895
32	0x3f919941	1.1374894
33	0x3f061c63	0.52387065
34	0xbdd49d49	-0.10381562
35	0x3e5efa0b	0.21775071
36	0x3f27ed0c	0.6559608
37	0x3ef77d6d	0.4833788
38	0xbd675014	-0.056472853
39	0x3f7cf6e9	0.98814255
40	0xbf3dae10	-0.74093723
41	0x3f968837	1.176032
42	0xbef283a7	-0.47366068
43	0x3f5dccda	0.86640704
44	0x3df475fe	0.11936568
45	0xbeb72eb6	-0.35777825
46	0xbed6fdd1	-0.41990522
47	0xbf3399bb	-0.7015645
48	0x3f196a6a	0.59928
49	0x3ececfc2	0.40392882
50	0xbda85d88	-0.08220965
51	0x3ed296f3	0.4113079
52	0x3e977677	0.2958257
53	0xbe3efe6f	-0.18651746
54	0x3f565426	0.8372215
55	0x3f8aade7	1.0834321
56	0xbf33f3d6	-0.7029394
57	0x3eeeda4e	0.46650928
58	0xbc03b18b	-0.008037935
59	0xbf4b42e7	-0.7939896
60	0x3edabda3	0.42722806
61	0xbf1c3580	-0.61019135
62	0xbf6258d7	-0.8841681
63	0x3e9194cb	0.28433833
64	0xbe8b7414	-0.27236998
65	0x3f98dfc7	1.1943291
66	0xbf368120	-0.7129078
67	0xbfa3cbf1	-1.2796613
68	0x3f681e38	0.9067111
69	0x3e23d6d3	0.15999918
70	0x3ecd9ac6	0.40157145
71	0xbea14944	-0.3150121
72	0xbd99580d	-0.074874975
73	0xbc568c33	-0.01309495
74	0x3f0c72cb	0.5486266
75	0xbedf6957	-0.43635055
76	0xbe918151	-0.28418973
77	0xbdcd373b	-0.100203
78	0x3e671682	0.2256718
79	0xbdf2b371	-0.11850632
80	0x3d8739d7	0.06602829
81	0x3f0a1436	0.5393709
82	0x3f19fd7f	0.6015243
83	0xbf6fd2a0	-0.93680763
84	0x3d95a8a8	0.07307559
85	0x3dacbc59	0.08434362
86	0x3f8ce15a	1.1006272
87	0x3cabc35d	0.02096718
88	0xbf57d435	-0.8430818
89	0xbcf41ee2	-0.029799882
90	0x3cacc6a0	0.021090806
91	0x3eaf9d14	0.3429953
92	0x3f877755	1.0583292
93	0x3f3a5e7a	0.7280041
94	0x3ec8a985	0.39191833
95	0x3eff968d	0.4991955
96	0x3c852c6b	0.016256532
97	0xbd8ef578	-0.06980413
98	0xbf629adb	-0.8851754
99	0x3eec8273	0.46193275
100	0xbee6659a	-0.4499939
101	0x3d8b7cd8	0.068109214
102	0xbe0d47a8	-0.13796866
103	0x3ea3cefa	0.31993848
104	0xbeabc7b8	-0.3355081
105	0x3e9a570b	0.30144534
106	0x3dddf86e	0.108384
107	0x3f2e0a6f	0.6798467
108	0xbeecbcfa	-0.46237928
109	0x3f40d87d	0.75330335
110	0xbf1cf633	-0.6131317
111	0x3f30c614	0.69052243
112	0x3fabe8d4	1.3430429
113	0xbe2083f3	-0.15675335
114	0x3fb24fbf	1.3930587
115	0xbec45c36	-0.383516
116	0xbe76e864	-0.24112087
117	0x3d66e2be	0.056368582
118	0x3e8e5c00	0.27804565
119	0xbedea4ae	-0.43485016
120	0xbf0b23fd	-0.5435179
121	0x3f44d525	0.7688773
122	0x3f0fb3b2	0.5613357
123	0x3d5dab8a	0.05411867
124	0xbeb78314	-0.35842192
125	0x3ee778dd	0.452094
126	0xbeabf97c	-0.3358878
127	0xbe0aa0d6	-0.13537917
128	0x3eea1bb1	0.45724252
129	0x3ccf0682	0.025271658
130	0xbf580a0e	-0.8439034
131	0x3f1d54b1	0.61457354
132	0x3fb9eca1	1.4525338
133	0x3f44944f	0.767888
134	0xbd9f7c8f	-0.077874295
135	0x3e2f9595	0.17146905
136	0x3f5efe4f	0.87106794
137	0x3dbda8a9	0.09260685
138	0xbdb502a4	-0.08838394
139	0x3f5b23c0	0.85601425
140	0xbda5fce1	-0.081048734
141	0x3f44d807	0.7689213
142	0xbf392782	-0.7232591
143	0x3f8a11f7	1.0786732
144	0x3e3e20ec	0.18567246
145	0xbe6cd1ce	-0.23126909
146	0x3f607c91	0.87690073
147	0xbf0398c7	-0.51404995
148	0x3e2b7d01	0.16746904
149	0x3e99ab25	0.30013385
150	0x3ee70e68	0.4512818
151	0x3dbb40d9	0.09143228
152	0xbd9fe22b	-0.0780681
153	0x3ee7f618	0.45304942
154	0x3f1a6e5d	0.6032465
155	0x3e9ed251	0.31019834
156	0xbe99e9af	-0.300611
157	0x3eb83470	0.35977507
158	0xbeca5959	-0.39521292
159	0xbeeb7c73	-0.45993385
160	0x3eeefb32	0.46676022
161	0xbf5da08b	-0.86573094
162	0xbf51735c	-0.8181665
163	0x3f164cbb	0.5871083
164	0xbd281fd9	-0.041045997
165	0x3f29d3dd	0.663389
166	0xbe8d7a3b	-0.27632317
167	0xbf2a2566	-0.66463315
168	0x3f3de840	0.7418251
169	0x3f861200	1.0474243
170	0xbe24a3b8	-0.16078079
171	0xbe5b0630	-0.21389079
172	0x3dda59b0	0.10661638
173	0xbd3ef3f4	-0.04661937
174	0xbb96db78	-0.0046037994
175	0xbf810c5f	-1.00819
176	0xbebe4f0a	-0.37169677
177	0xbda49dc8	-0.08037907
178	0x3e9a9db7	0.30198452
179	0xbd9e703b	-0.0773625
180	0xbe7c304c	-0.24627799
181	0x3e4e99d1	0.20175864
182	0x3eafd1b4	0.34339678
183	0x3e5b30ea	0.21405378
184	0x3e113978	0.14182079
185	0x3e340afd	0.17582317
186	0x3f30a5bc	0.6900289
187	0xbd10c648	-0.035345346
188	0xbe92b023	-0.28650007
189	0xbe93ca14	-0.2886511
190	0x3f589165	0.84596854
191	0xbea976b2	-0.3309837
192	0x3f7d54f1	0.98957735
193	0xbd60795c	-0.054803237
194	0xbc368ab3	-0.011141467
195	0x3dd1344a	0.102150515
196	0xbcaa3a99	-0.020779895
197	0xbf130174	-0.5742409
198	0xbfb629a2	-1.4231455
199	0xbdd533b6	-0.10410254
200	0xbe5bbd64	-0.21458966
201	0x3f143dd8	0.57906866
202	0x3f11686a	0.5679995
203	0x3f7b171c	0.9808214
204	0xbe33c00f	-0.17553733
205	0xbd9f2c42	-0.077721134
206	0xbcb12c2c	-0.021627508
207	0x3f068700	0.52549744
208	0xbf11f917	-0.57020706
209	0xbd9bbd98	-0.076045215
210	0x3e952022	0.29126078
211	0xbeb2af05	-0.34899154
212	0x3f84538a	1.0337994
213	0x3e078a94	0.13236457
214	0x3f036a8d	0.5133446
215	0xbe9c3c4a	-0.30514747
216	0xbec29b22	-0.38008982
217	0xbee8e812	-0.45489556
218	0x3e19a7d7	0.15005432
219	0xbcbb6e07	-0.022879614
220	0xbe82bc94	-0.255345
221	0x3fa15fa6	1.2607315
222	0x3edacfa8	0.42736554
223	0xbf094ab4	-0.5362961
224	0x3e90cbaa	0.28280383
225	0x3e896b3a	0.2683962
226	0xbf2b9abc	-0.6703298
227	0xbdfcab58	-0.12337369
228	0x3e076c3d	0.13224883
229	0xbec07c6f	-0.37594935
230	0xbf08b500	-0.53401184
231	0x3f5836f5	0.8445886
232	0x3f54be6d	0.83103067
233	0x3e7d8607	0.24758159
234	0xbe24f1d9	-0.16107883
235	0xbc85bed6	-0.01632635
236	0x3f233fbe	0.6376914
237	0x3c393f8b	0.011306654
238	0xbe047e26	-0.12938747
239	0x3ef09d81	0.46995166
240	0xbf414c2b	-0.7550685
241	0x3f397edf	0.72459215
242	0xbed339c0	-0.41254997
243	0x3f572340	0.8403816
244	0x3daa64ae	0.083199844
245	0xbefa7260	-0.48915386
246	0xbc0d7614	-0.008634109
247	0xbeced1bc	-0.4039439
248	0x3eed3221	0.46327308
249	0x3e8d5b02	0.27608496
250	0xbe245ba2	-0.1605058
251	0x3f254078	0.64551497
252	0xbee130a2	-0.43982416
253	0x3e6077c1	0.21920682
254	0x3f4129dc	0.754545
255	0x3f7780d9	0.9668098
