Models/robust_Heart.pt (torch, 331980 bytes, 2 tensors)

input_embeddings.weight f4 [413, 100]
-0.7361906 -0.064887136 -0.3864993 -0.31544504 0.2706681 -0.6366989 -0.5223576 -0.58413064
-0.17064174 -0.147768 -0.18276417 -0.21145454 -0.112331934 -0.21475108 -0.23198996 -0.015931018
-0.09560287 0.16987601 0.18298548 -0.1172474 0.13177936 -0.70000124 0.19983979 0.041322906
0.56528944 0.34356645 0.25548425 -0.4942533 -0.60676676 -0.028869467 0.9959647 0.5315232
-0.29260522 -0.21034516 -0.19957489 0.33791497 -0.48143852 0.2816995 0.18201944 -0.18087351
-0.4384208 0.041150928 0.021656452 0.22658624 0.13737765 0.22645609 0.05172327 0.09260707
-0.5946009 0.10800015 0.23720503 -0.9378394 -0.9105432 0.25891423 0.47587928 -0.1507511
-0.06067131 0.4139558 0.09634717 0.86520916 0.15024064 -0.31426796 0.10909102 0.95428956
0.32701814 0.5557915 0.19007125 0.33183601 -0.6520138 -0.6850768 0.37236395 -0.2934202
0.9465574 0.14619036 0.23665433 -0.854868 -0.5489015 0.17869988 0.66752625 0.2506376
0.25735924 0.16727997 0.17291366 0.46760526 0.37957236 0.29910225 -0.057101533 1.0588214
-0.26340857 0.2462747 0.127856 -0.6621728 -0.5384053 -0.33566353 -0.45196325 -0.1424595
0.06911085 0.28825194 0.30381387 -0.77870095 -0.6321537 -0.3224665 -0.73434323 0.20140062
0.4379884 -0.77874535 -0.099539936 -0.027062222 -0.35335484 0.2628828 -0.2224946 -0.22297174
-0.54838705 0.079156436 -0.21113719 -0.18534136 0.51311255 -0.074434035 0.47516364 -0.01084208
-0.14750648 -0.40991062 -0.048853036 0.2246819 0.4349556 0.49761286 0.4247049 0.1511262
-0.1577433 0.016126567 0.17099349 -0.0012901733 0.31080484 -0.23838101 -0.679226 -0.12301604
-0.49522838 0.3650782 0.17943747 -0.45849714 0.15233636 0.01458774 0.1926312 0.5313215
-0.092681736 0.01558923 -0.5825339 -0.09573673 -0.347455 0.15673907 0.5057097 -0.24228491
-0.57209647 0.727944 0.15977679 -0.041815467 -0.09905286 0.49210986 -0.037738685 0.2580663
-0.12994398 -0.09775765 0.06110288 0.6713679 0.10546402 0.72442937 -0.13959311 -0.06868498
-0.32312357 -0.8101114 0.27416956 0.2881257 0.29915872 -0.20270917 0.12130173 -0.28427216
-0.2801899 -0.041862525 0.5210311 0.2454378 0.004862372 -0.19673839 0.21159606 0.21119781
-0.25638467 -0.29002863 -0.29213268 0.6757878 -0.14958358 -0.16019335 0.47948024 -0.48615882
0.14388627 -0.31855327 -0.23391667 -0.18978529 0.22747815 0.39982152 -0.1297331 -0.6517766
-0.8470346 -0.50550735 -0.57277673 -0.028559571 -0.26628497 -0.5349005 0.00517552 0.3789943
-0.7583976 -0.6162435 -0.52297753 -0.49041262 0.60205096 -0.6919674 0.001976805 0.039272185
-0.5057235 -0.06716631 -0.04627943 -0.3307586 0.5389006 -0.7886168 0.13669883 -0.09284581
0.70576394 0.8307304 0.24819468 -0.9483856 -0.1492766 -0.040321816 0.0600791 0.090167694
-0.5783423 0.18381754 -0.35545015 -0.42580834 -0.5941923 -0.043079853 -0.45461673 -0.47247055
0.28382325 -0.16227311 0.39418185 0.18141636 -0.27750215 -0.63206756 -0.064104035 0.6034857
-0.34536475 -0.025727589 -0.15929088 -0.23747283 -0.6566881 0.9653349 -0.34294978 -0.2416263
00000000: fd76 3cbf 8ce3 84bd 3ce3 c5be 0382 a1be
00000010: 0295 8a3e b3fe 22bf 3ab9 05bf 9689 15bf
00000020: b5bc 2ebe 7f50 17be 8826 3bbe 8a87 58be
00000030: 490e e6bd b5e7 5bbe c78e 6dbe c481 82bc
00000040: 70cb c3bd faf3 2d3e 8c60 3b3e 681f f0bd
00000050: 2bf1 063e 4833 33bf cda2 4c3e 3542 293d
00000060: cfb6 103f f1e7 af3e d5ce 823e c50e fdbe
00000070: 1155 1bbf a97f ecbc 8bf7 7e3f e811 083f
00000080: 5ad0 95be b964 57be 5c5d 4cbe 3103 ad3e
00000090: 1c7f f6be eb3a 903e 4e63 3a3e e836 39be
000000a0: b178 e0be e08d 283d df68 b13c 3906 683e
000000b0: baac 0c3e 1be4 673e c8db 533d c7a8 bd3d
000000c0: c437 18bf 2f2f dd3d e0e5 723e 3e16 70bf
000000d0: 5c19 69bf 6890 843e 73a6 f33e 7f5e 1abe
000000e0: 7b82 78bd 04f2 d33e aa51 c53d 597e 5d3f
000000f0: afd8 193e bbe7 a0be 1d6b df3d 524c 743f
00000100: ec6e a73e 5a48 0e3f 0aa2 423e 69e6 a93e
00000110: 60ea 26bf 3161 2fbf 7da6 be3e 2c3b 96be
00000120: 9651 723f edb2 153e 8355 723e a1d8 5abf
00000130: cf84 0cbf 1afd 363e 00e3 2a3f 9253 803e
00000140: 97c4 833e 714b 2b3e 4710 313e f569 ef3e
00000150: 4f57 c23e ee23 993e 4ce3 69bd 7687 873f
00000160: 7ddd 86be 6f2f 7c3e afec 023e 2884 29bf
00000170: eed4 09bf 17dc abbe ba67 e7be e7e0 11be
00000180: fd89 8d3d c295 933e 7e8d 9b3e f258 47bf
00000190: d3d4 21bf 541a a5be ebfd 3bbf f73b 4e3e
000001a0: 0440 e03e db5b 47bf 98db cbbd 98b1 ddbc
000001b0: edea b4be 9398 863e a0d5 63be b452 64be
000001c0: 1863 0cbf c51c a23d 5934 58be 20ca 3dbe
000001d0: 585b 033f df70 98bd a648 f33e fba2 31bc
000001e0: f00b 17be cedf d1be 1f1a 48bd 0313 663e
000001f0: 80b2 de3e 1dc7 fe3e ec72 d93e d4c0 1a3e
00000200: 7687 21be dd1b 843c eb18 2f3e 081b a9ba
00000210: d021 9f3e 271a 74be c1e1 2dbf d5ef fbbd
00000220: 938e fdbe 88eb ba3e 75be 373e 23c0 eabe
00000230: 10fe 1b3e 6b01 6f3c 1d41 453e b004 083f
00000240: eccf bdbd f869 7f3c f120 15bf 9e11 c4bd
00000250: 9fe5 b1be 3580 203e 3176 013f 8919 78be
00000260: ea74 12bf 8a5a 3a3f 879c 233e b246 2bbd
00000270: 3adc cabd d3f5 fb3e e193 1abd 4421 843e
00000280: 0910 05be 2a35 c8bd 0347 7a3d c4de 2b3f
00000290: 85fd d73d 3474 393f 7ff1 0ebe b6aa 8cbd
000002a0: 7470 a5be 7663 4fbf f45f 8c3e 3685 933e
000002b0: 552b 993e fe92 4fbe 0b6d f83d 1f8c 91be
000002c0: 0d75 8fbe 0a78 2bbd 4b62 053f 0c54 7b3e
000002d0: 8854 9f3b ca75 49be a3ac 583e 3d44 583e
000002e0: da44 83be a27e 94be 6a92 95be 6e00 2d3f
000002f0: 702c 19be ba09 24be 6f7e f53e cfe9 f8be
00000300: ec56 133e 6a19 a3be da87 6fbe 1357 42be
00000310: 08f0 683e 68b5 cc3e c1d8 04be d5da 26bf
00000320: 42d7 58bf ee68 01bf 7fa1 12bf c3f5 e9bc
00000330: 8156 88be 3def 08bf 6997 a93b 8a0b c23e
00000340: 5826 42bf 22c2 1dbf dbe1 05bf 5d17 fbbe
00000350: 0320 1a3f c724 31bf 498d 013b dfdb 203d
00000360: 1877 01bf 7e8e 89bd 808f 3dbd 3159 a9be
00000370: 64f5 093f cae2 49bf c7fa 0b3e f225 bebd
00000380: f2ac 343f bfaa 543f bf26 7e3e 66c9 72bf
00000390: f7db 18be 7d28 25bd 8115 763d d7a9 b83d
000003a0: 3e0e 14bf aa3a 3c3e 90fd b5be 8d03 dabe
000003b0: fd1c 18bf 8074 30bd 86c3 e8be a9e7 f1be
000003c0: 4851 913e ec2a 26be 34d2 c93e 36c5 393e
000003d0: c314 8ebe 2ecf 21bf fa48 83bd 0a7e 1a3f
000003e0: a6d3 b0be aac2 d2bc 261d 23be 142c 73be
000003f0: b61c 28bf 3020 773f 1d97 afbe e36c 77be

output_embeddings.weight f4 [413, 100]
-0.13417807 0.1365542 -0.573237 -0.84008956 0.5065526 -0.04799917 0.18851215 0.29076815
-0.0050437367 0.44308916 0.17464784 -0.3116313 -0.4040562 -0.29181147 -0.9083869 -0.8814866
-0.5058008 -0.17507555 0.2943651 -0.067561984 0.45318717 -0.017875025 -0.7763155 0.1097646
-0.093065955 0.18012033 0.16117184 -0.33102098 0.38044536 -0.7041098 0.37970933 0.5852161
0.1835968 0.5114689 -0.18995753 -0.35846537 -0.11866764 -0.12654456 0.40186143 -0.08671842
0.16762488 0.40105605 0.6067524 0.5508021 -0.38416806 0.4088012 -0.7249232 0.31470317
-0.23231645 -0.8348474 0.27306506 -0.13630272 -0.66869473 0.6409726 -0.1683457 -0.6537109
-0.8188335 -0.061036 -1.0079187 0.26161665 0.10450556 0.41129053 -0.037544154 0.76664984
0.49315333 0.53021705 -0.21015413 0.6800967 -0.6667858 -0.23260379 0.72829455 -0.23734613
0.32894832 -0.0017077788 0.6503013 0.016994542 0.27423683 -0.094035335 0.14634477 -0.3180531
0.5191369 0.21880372 0.19894654 0.2470747 -0.46465245 -0.46339008 0.0883013 0.31584617
0.51876014 0.3342714 -0.090514205 -0.4790539 0.05729209 -0.013351101 -0.7002437 -0.36141467
-0.29544216 0.9823963 0.34872183 -0.19957207 -0.06264915 0.15107831 -0.053648915 -0.69265246
0.7782802 0.33229056 0.2958412 -0.1945939 0.19614312 -0.017254002 0.29267022 -0.32851726
0.10136972 0.06549177 -0.3706803 -0.6890062 -0.5536345 -0.22085515 0.32192296 -0.04758768
0.6409388 -0.40552813 -0.36014792 -0.24987082 0.13980626 -0.100748524 0.033062533 -0.5525687
0.3732116 0.057650127 0.40184534 0.12940367 -0.3734818 0.15826397 -0.034424435 -0.1432602
0.052501388 -0.30219635 0.05449708 -0.6576139 -0.4846208 0.30728298 0.6945926 -0.48755813
0.04947039 0.42409444 -0.38708052 0.4963293 -0.32116657 -0.74623114 0.016655128 -0.37526008
-0.1764239 -0.017343763 0.38952735 -0.65519196 -0.6136381 0.017969113 -0.67022836 0.013597851
0.08268152 -0.021390755 0.41792676 0.43800983 0.5715186 0.36119863 0.026512345 0.31705707
-0.40970954 -0.41423756 0.27615526 -0.5024443 0.675386 -0.028183509 0.559439 0.13927357
0.45584476 0.46851578 0.24051037 -0.17457701 0.6968368 0.3914419 -0.19157234 0.3565725
0.158733 0.3760948 0.36778438 -0.27961615 0.34783417 0.47424582 -0.3041882 -0.53919095
0.13953298 0.72697705 -1.0784494 -0.029026937 -0.19530222 0.8338459 -0.075303875 0.10703587
0.3649804 0.5346052 -0.5127403 -0.5765402 0.7660508 -0.060383927 -0.3854807 0.63663393
-0.05688211 -0.09027506 0.5565793 0.48825794 0.07803281 0.010693909 -0.52505815 -0.34991172
-0.20730801 -0.88833475 0.47478217 -0.50907075 0.16117555 -0.42931563 -0.14165527 -0.35351425
0.4423687 -0.067216635 -0.08212081 -0.6933373 -0.22524023 -1.0355716 0.7827759 0.8546904
0.4448489 0.5763954 -0.4638391 -0.5908536 -0.037271887 -0.55988085 0.22521514 -0.16435036
0.37589535 0.35294256 0.7381579 0.035462905 -0.73339754 -0.010558739 -0.78967243 0.023214335
-0.2942435 -0.45195717 0.38555562 -0.00480089 -0.7779283 0.029338898 -0.018878363 -0.119891845
00000000: fa65 09be ddd4 0b3e a9bf 12bf 1c10 57bf
00000010: 6ead 013f c79a 44bd 5409 413e 90df 943e
00000020: ee45 a5bb 95dc e23e e2d6 323e 238e 9fbe
00000030: 74e0 cebe 5068 95be 0b8c 68bf 1ba9 61bf
00000040: 297c 01bf 0147 33be 06b7 963e f05d 8abd
00000050: 2608 e83e a56e 92bc 9dbc 46bf 43cc e03d
00000060: 5d99 bebd 7771 383e 3b0a 253e 957b a9be
00000070: bcc9 c23e 8a40 34bf 4369 c23e b9d0 153f
00000080: cd00 3c3e a0ef 023f 3a84 42be c688 b7be
00000090: 0508 f3bd e694 01be c8c0 cd3e 6d99 b1bd
000000a0: dba5 2b3e 3857 cd3e 2054 1b3f 5e01 0d3f
000000b0: adb1 c4be 644e d13e 9194 39bf c620 a13e
000000c0: 5de4 6dbe 8fb8 55bf 2fcf 8b3e f192 0bbe
000000d0: 942f 2bbf c816 243f d162 2cbe 9959 27bf
000000e0: 129f 51bf e200 7abd 7b03 81bf 9ef2 853e
000000f0: 0307 d63d ac94 d23e e6c7 19bd 2a43 443f
00000100: 987e fc3e 4ebc 073f a532 57be d11a 2e3f
00000110: 79b2 2abf b02f 6ebe 8371 3a3f dd0a 73be
00000120: ea6b a83e 8cd7 dfba 257a 263f 2338 8b3c
00000130: c568 8c3e 9995 c0bd 67db 153e dbd7 a2be
00000140: 28e6 043f 150e 603e a4b8 4b3e 2601 7d3e
00000150: ede6 edbe 7741 edbe 50d7 b43d 97b6 a13e
00000160: 77cd 043f 9f25 ab3e 835f b9bd 8e46 f5be
00000170: 1cab 6a3d 94be 5abc 2c43 33bf 580b b9be
00000180: 3244 97be 537e 7b3f ab8b b23e 9f5c 4cbe
00000190: 334e 80bd 46b4 1a3e f7be 5bbd ac51 31bf
000001a0: 5f3d 473f fd21 aa3e 7f78 973e a043 47be
000001b0: bed9 483e 4458 8dbc dfd8 953e 6a33 a8be
000001c0: ee9a cf3d 8d20 863d cfc9 bdbe b662 30bf
000001d0: feba 0dbf da27 62be 16d3 a43e 4deb 42bd
000001e0: 9114 243f 62a1 cfbe 4f65 b8be 23de 7fbe
000001f0: 5f29 0f3e 3e55 cebd 946c 073d 2475 0dbf
00000200: 9715 bf3e 8a22 6c3d acbe cd3e 6582 043e
00000210: 0239 bfbe f30f 223e a300 0dbd cdb2 12be
00000220: b20b 573d 7bb9 9abe 5538 5f3d 6259 28bf
00000230: 3820 f8be 3254 9d3e d2d0 313f 38a1 f9be
00000240: 77a1 4a3d e822 d93e 6b2f c6be e01e fe3e
00000250: f26f a4be 0109 3fbf 5670 883c 1722 c0be
00000260: 78a8 34be 8214 8ebc 2170 c73e a9ba 27bf
00000270: 6317 1dbf f633 933c 1694 2bbf 85c9 5e3c
00000280: ee54 a93d aa3b afbc 7ffa d53e d342 e03e
00000290: 0b4f 123f 07ef b83e 6b30 d93c 4e55 a23e
000002a0: 73c5 d1be f216 d4be 3964 8d3e 31a0 00bf
000002b0: 19e6 2c3f 1ae1 e6bc 6537 0f3f bb9d 0e3e
000002c0: 7c64 e93e 4de1 ef3e 5a48 763e 51c4 32be
000002d0: e663 323f 136b c83e 8a2b 44be ac90 b63e
000002e0: e78a 223e 7f8f c03e 3c4e bc3e d929 8fbe
000002f0: 5217 b23e 59d0 f23e 8ebe 9bbe 6b08 0abf
00000300: bce1 0e3e 2b1b 3a3f a10a 8abf e6c9 edbc
00000310: 4efd 47be ed76 553f eb38 9abd 9f35 db3d
00000320: b6de ba3e e3db 083f f342 03bf 2398 13bf
00000330: e81b 443f 2355 77bd ba5d c5be 71fa 223f
00000340: 37fd 68bd 21e2 b8bd fb7b 0e3f f2fc f93e
00000350: aacf 9f3d 8135 2f3c 366a 06bf a127 b3be
00000360: 8d48 54be e869 63bf a616 f33e 7652 02bf
00000370: 340b 253e 42cf dbbe 140e 11be d2ff b4be
00000380: 267e e23e e0a8 89bd f52e a8bd 8e7e 31bf
00000390: 60a5 66be 9c8d 84bf 0064 483f fdcc 5a3f
000003a0: 3cc3 e33e a68e 133f 527c edbe 2e42 17bf
000003b0: 68aa 18bd 5a54 0fbf cc9e 663e 764b 28be
000003c0: 5b75 c03e e3b4 b43e ebf7 3c3f 8d41 113d
000003d0: f1bf 3bbf 90fe 2cbc f927 4abf fd2b be3c
000003e0: 16a7 96be ee66 e7be 8c67 c53e c950 9dbb
000003f0: 4f26 47bf 2158 f03c cca6 9abc db89 f5bd
