Models/small_Heart.pt (torch, 331980 bytes, 2 tensors)

input_embeddings.weight f4 [413, 100]
0.14784619 0.06917591 -0.14095479 0.071329586 0.27363932 -0.07372457 0.12077599 -0.42119402
0.03524202 -0.05235026 0.06850743 -0.15010922 0.031445347 -0.14935234 0.35641715 -0.35282084
-0.31106338 0.2909642 0.103182435 -0.47595003 0.488715 -0.014409617 -0.086283356 0.13494658
-0.28318927 -0.16487156 -0.35012275 -0.08431893 -0.18030582 -0.06908847 -0.038208142 -0.33922946
0.056088287 -0.09102685 0.4392513 0.49159026 -0.27730367 -0.17093927 -0.18626158 -0.17179842
-0.14808144 -0.04354182 -0.42211485 -0.15393029 0.021172404 -0.17163016 -0.16045791 0.56451744
0.420826 -0.17610696 0.19258064 0.29880348 0.25527993 -0.07962315 0.35215014 -0.39568526
0.28217307 0.054315366 -0.052945334 0.32710433 0.05511581 -0.043145478 0.009472422 0.20386079
-0.22735521 -0.27416483 0.2341622 -0.2091449 0.04183275 -0.34563503 0.060845833 -0.04240616
-0.30471596 -0.014236613 0.32589826 0.025263105 -0.38218504 0.19497229 -0.100000024 -0.03874501
-0.064052776 0.05653616 0.557953 0.078169726 -0.26610723 0.03335893 -0.35048494 -0.46766898
0.11528147 -0.16624673 0.2006416 0.2287334 0.06364674 -0.034542248 0.034056958 0.03622458
-0.04812337 -0.3353376 0.29432896 0.346879 -0.012624215 -0.14899936 0.2197957 0.019737324
0.28248572 -0.28116828 -0.08492726 0.23772307 0.029587789 0.2647604 0.116534255 0.24482486
0.25086138 0.0715508 0.24040526 0.14473031 -0.033582505 0.35616782 -0.31272185 -0.04902525
0.15298495 0.28246522 -0.24414015 0.15875284 0.11534207 -0.2114675 -0.07933009 0.0721081
0.0004555481 0.15218592 -0.19558424 -0.24395205 -0.025716264 -0.0054878425 0.2670604 0.20466605
0.01287842 -0.3808149 -0.21177909 0.1350238 0.04128757 -0.22297233 0.25987238 -0.2628952
0.071256995 0.048301276 -0.13508591 0.36620018 -0.22245918 -0.1614787 0.10804971 0.048135627
0.1809859 -0.11437222 0.16393307 -0.16797951 -0.0017242079 -0.31380233 -0.3679963 -0.020783897
0.1917866 0.30691847 -0.0072914907 -0.022762585 -0.0838005 -0.31957802 0.16284423 -0.08771815
0.18325984 -0.25418186 0.19396232 0.1375646 -0.22618513 -0.017110169 0.1991728 0.13651557
0.08707343 -0.016216485 -0.2136825 -0.07331959 0.2782896 -0.20359915 0.39204228 -0.14329231
0.021522742 0.26468942 0.27354455 0.03350893 -0.010576893 -0.36247486 0.16058551 0.12981427
0.1951473 -0.14339219 0.035096355 0.11998303 -0.28146693 0.04630977 0.2343237 0.1637621
-0.3135836 -0.14747113 0.34805477 0.267567 -0.048638422 -0.03471399 -0.1766912 -0.28510466
0.40960392 -0.24655505 0.45928168 0.02509196 -0.012403568 -0.06970361 0.1614361 -0.1963596
-0.11596769 0.34386262 0.13466905 -0.35854086 -0.20624612 0.27101138 0.025204629 -0.050863143
-0.14627 0.013302103 0.13837324 -0.15388474 0.22661853 0.08962392 -0.046076026 -0.19638415
-0.081789024 0.24505095 0.13783623 0.17808516 -0.10053821 0.2591295 -0.08712633 -0.10797825
-0.41560268 -0.47382972 -0.47371542 0.13973218 -0.024193067 0.045258224 -0.017721286 0.13971
0.01854611 -0.23490447 -0.4409021 0.021167075 0.18530942 0.31940553 0.6025054 0.012591532
00000000: fe64 173e 19ac 8d3d 7456 10be 3f15 923d
00000010: 741a 8c3e e8fc 96bd 6759 f73d bea6 d7be
00000020: f059 103d 3a6d 56bd a04d 8c3d 3bb6 19be
00000030: d6cc 003d d2ef 18be 4f7c b63e efa4 b4be
00000040: b343 9fbe 42f9 943e 5051 d33d b9af f3be
00000050: da38 fa3e 5016 6cbc 54b5 b0bd 702f 0a3e
00000060: 2ffe 90be 17d4 28be 4a43 b3be 67af acbd
00000070: 17a2 38be 417e 8dbd 2480 1cbd 7caf adbe
00000080: d5bc 653d 496c babd 8ce5 e03e b8b1 fb3e
00000090: bffa 8dbe b40a 2fbe 5bbb 3ebe edeb 2fbe
000000a0: a9a2 17be e858 32bd 701f d8be e79f 1dbe
000000b0: c071 ad3c d1bf 2fbe 144f 24be 3784 103f
000000c0: 8176 d73e 6255 34be dc33 453e c5fc 983e
000000d0: 0db4 823e 7611 a3bd 064d b43e 4297 cabe
000000e0: fd78 903e ca79 5e3d 35dd 58bd 387a a73e
000000f0: 1ec1 613d 50b9 30bd 3832 1b3c e2c0 503e
00000100: cecf 68be 555f 8cbe 37c8 6f3e 152a 56be
00000110: d158 2b3d 13f7 b0be 7b39 793d 15b2 2dbd
00000120: bb03 9cbe af40 69bc 23dc a63e 92f4 ce3c
00000130: c2ad c3be d1a6 473e d0cc ccbd 16b3 1ebd
00000140: 1a2e 83bd 7692 673d 02d6 0e3f 7317 a03d
00000150: 353f 88be 60a3 083d c372 b3be 4f72 efbe
00000160: b118 ec3d 953c 2abe fe74 4d3e 1739 6a3e
00000170: 3959 823d 2c7c 0dbd 4f7f 0b3d 3a60 143d
00000180: 031d 45bd 5fb1 abbe 49b2 963e 209a b13e
00000190: ccd5 4ebc 4a93 18be 2012 613e 2bb0 a13c
000001a0: f8a1 903e 4af5 8fbe 58ee adbd ad6d 733e
000001b0: 1762 f23c ad8e 873e 83a9 ee3d 5eb3 7a3e
000001c0: e770 803e 3a89 923d cc2c 763e 2f34 143e
000001d0: cf8d 09bd a15b b63e 141d a0be b3ce 48bd
000001e0: 16a8 1c3e 489f 903e e0ff 79be 1b90 223e
000001f0: 7738 ec3d f08a 58be d077 a2bd 69ad 933d
00000200: a2d6 ee39 a0d6 1b3e 3c47 48be 91ce 79be
00000210: eaaa d2bc 5cd3 b3bb 24bc 883e fa93 513e
00000220: 0200 533c 2cfa c2be 9edc 58be ae43 0a3e
00000230: 281d 293d dc52 64be fe0d 853e 339a 86be
00000240: 30ef 913d 8fd7 453d f653 0abe 977e bb3e
00000250: 57cc 63be ac5a 25be 2b49 dd3d dd29 453d
00000260: 5e54 393e fc3b eabd 12de 273e d202 2cbe
00000270: d1fe e1ba b3aa a0be 036a bcbe fe42 aabc
00000280: b563 443e 6b24 9d3e 75ed eebb 9a78 babc
00000290: 999f abbd bb9f a3be a3c0 263e 93a5 b3bd
000002a0: 78a8 3b3e 2024 82be 0f9e 463e bcdd 0c3e
000002b0: 139d 67be a02a 8cbc f4f3 4b3e bdca 0b3e
000002c0: 8e53 b23d 6fd8 84bc 96cf 5abe 9528 96bd
000002d0: f97b 8e3e 4c7c 50be c4b9 c83e 38bb 12be
000002e0: 7650 b03c 5f85 873e 080e 8c3e a940 093d
000002f0: b44a 2dbc 4e96 b9be 8770 243e 08ee 043e
00000300: b2d4 473e 67d5 12be 32c1 0f3d aab9 f53d
00000310: 6f1c 90be 50af 3d3d 8df2 6f3e 40b1 273e
00000320: 088e a0be ac02 17be 3c34 b23e 8bfe 883e
00000330: 1539 47bd 4230 0ebd 8aee 34be 3df9 91be
00000340: 9bb7 d13e ed78 7cbe f826 eb3e a78d cd3c
00000350: 5638 4bbc c4c0 8ebd 814f 253e 7e12 49be
00000360: 7880 edbd c30e b03e afe6 093e ab92 b7be
00000370: 2f32 53be 01c2 8a3e f079 ce3c df55 50bd
00000380: cec7 15be 10f1 593c b7b1 0d3e f693 1dbe
00000390: b00e 683e bf8c b73d 37ba 3cbd ed18 49be
000003a0: 0181 a7bd a3ee 7a3e f124 0d3e f55b 363e
000003b0: fae6 cdbd 9fac 843e 4a6f b2bd b323 ddbd
000003c0: e0c9 d4be cf99 f2be d48a f2be f415 0f3e
000003d0: 8a30 c6bc b060 393d 3b2c 91bc 2310 0f3e
000003e0: 03ee 973c cc8a 70be ecbd e1be 9366 ad3c
000003f0: c1c1 3d3e 1f89 a33e cb3d 1a3f b74c 4e3c

output_embeddings.weight f4 [413, 100]
-0.17751624 -0.38960564 0.45804426 0.2424838 0.2126292 -0.3260477 -0.25880393 0.03504283
0.24179219 0.24741663 -0.23502298 -0.19950761 -0.04933339 -0.35472226 0.2268148 -0.23502067
-0.13691564 0.05942006 -0.15330945 0.055172503 0.16208947 0.2634956 -0.44155973 -0.07737637
-0.06509525 -0.0077224304 0.11217804 -0.14355369 0.07565452 0.2726451 -0.06741858 -0.41310516
0.24657783 0.32376087 -0.14221047 0.19431375 0.07431516 -0.2563978 -0.03270503 -0.16937402
-0.33775008 0.28092307 -0.25134486 -0.33324707 0.07176357 0.2416507 0.055955894 0.3717589
-0.32502276 0.029270887 -0.15190426 -0.055770025 0.5684702 -0.23365194 0.11895733 -0.3606922
0.1370045 -0.28677806 -0.053230066 0.20225699 0.0058940933 0.15798356 0.20431408 0.11294184
0.23972686 -0.055211 0.4422825 -0.070222884 -0.0021269813 -0.31099188 -0.26173252 0.040772106
-0.58420235 0.2594352 0.2106363 0.37779754 -0.024772765 0.053634904 0.24268812 0.48901856
0.086884364 -0.23790732 0.005480709 -0.40095976 0.07880286 0.15962821 -0.091004685 -0.16705707
-0.18824121 -0.092800625 -0.17602496 0.045968942 0.48061687 -0.047130335 -0.019131865 0.029857785
0.14289798 0.28273848 0.25020528 0.046619166 -0.08022753 -0.066784754 0.3485096 -0.20670359
0.11783219 -0.10907756 0.059852522 -0.34167743 -0.09351153 0.20324641 0.28127646 -0.260432
-0.09242934 -0.101242766 -0.1343523 -0.3123236 -0.20754722 0.21854308 0.1963873 -0.14998989
0.15749368 -0.06438332 -0.34908924 -0.17742446 0.06506286 -0.17997864 -0.06258136 -0.210637
0.07875768 0.118865155 0.06139828 -0.058697693 0.006519597 0.11023443 -0.13867892 0.27536678
-0.19123936 -0.18524873 -0.06532574 -0.20794863 -0.40914237 -0.0024228832 -0.21197303 -0.05448401
0.16804154 0.23536482 0.17012991 0.058032304 0.056857873 0.130609 -0.07977865 0.13116468
0.27597445 0.049048923 -0.06271743 -0.17058723 -0.12602086 0.060325883 -0.16934727 0.25014132
-0.2757371 0.042956162 -0.10938833 0.18653934 0.11579285 0.118039325 0.37345156 -0.05387638
0.099878125 -0.11598662 0.03952329 -0.29774204 -0.3093298 -0.06369887 0.27645314 -0.033503734
-0.13409631 0.0042065345 0.2022392 0.21208191 -0.27314305 0.35098118 0.22954391 -0.33973804
-0.07844323 0.08260345 -0.38046795 -0.017671434 -0.024076404 0.043086357 -0.22110671 0.20874438
0.01723874 -0.054364316 -0.03280556 -0.14279668 0.026641266 -0.06967358 0.04458774 0.24492882
0.19058898 0.33149508 -0.08440214 0.08447807 0.05156509 -0.03822093 -0.5374221 -0.09511641
0.20005639 0.49899498 -0.14911039 -0.33029053 -0.017087718 -0.2617279 0.17051032 -0.33590972
0.1525161 0.15307099 -0.19841336 0.19772203 0.108222 -0.13095853 -0.16948217 -0.34214234
-0.34181237 -0.2507045 0.13918202 -0.13046797 -0.47686803 0.06620808 -0.07643609 -0.20075943
0.24522972 0.31172302 -0.1270277 0.49953157 0.41052234 -0.45399886 -0.07957754 -0.20516534
-0.013769065 0.16043383 -0.287803 0.01751752 -0.14593728 0.2550626 0.29353246 0.39590463
-0.0449467 0.22206216 -0.19675435 0.2868653 0.43327212 0.09084889 -0.07088786 -0.040555257
00000000: d1c6 35be 647a c7be c784 ea3e ac4d 783e
00000010: 78bb 593e b9ef a6be f381 84be 1289 0f3d
00000020: 5f98 773e c95a 7d3e dda9 70be b94b 4cbe
00000030: cf11 4abd 289e b5be 2442 683e 42a9 70be
00000040: 9d33 0cbe 7362 733d 27fd 1cbe 90fc 613d
00000050: c8fa 253e e5e8 863e 1e14 e2be 8177 9ebd
00000060: a950 85bd 710c fdbb 9abd e53d bdff 12be
00000070: c2f0 9a3d 2398 8b3e c112 8abd 8582 d3be
00000080: e67e 7c3e fcc3 a53e 9f9f 11be 2ffa 463e
00000090: 8c32 983d 9346 83be b6f5 05bd 6270 2dbe
000000a0: 94ed acbe 26d5 8f3e 46b0 80be 5c9f aabe
000000b0: c7f8 923d 4873 773e 0232 653d 2f57 be3e
000000c0: 6269 a6be 80c9 ef3c ca8c 1bbe 1c6f 64bd
000000d0: 4387 113f 7442 6fbe e79f f33d a6ac b8be
000000e0: e84a 0c3e 93d4 92be c507 5abd 751c 4f3e
000000f0: 3d23 c13b 71c6 213e b637 513e 0d4e e73d
00000100: f57a 753e ee24 62bd da72 e23e 04d1 8fbd
00000110: d364 0bbb 543a 9fbe ce01 86be a700 273d
00000120: 498e 15bf b1d4 843e 0bb1 573e ae6e c13e
00000130: 41f0 cabc 46b0 5b3d 3c83 783e a460 fa3e
00000140: 6ef0 b13d fa9d 73be 8597 b33b 994a cdbe
00000150: 6563 a13d 9475 233e aa60 babd 0211 2bbe
00000160: 4ec2 40be 410e bebd e33f 34be ee49 3c3d
00000170: 6a13 f63e bd0b 41bd 6eba 9cbc 5098 f43c
00000180: d953 123e 19c3 903e e81a 803e bdf3 3e3d
00000190: 554e a4bd 72c6 88bd da6f b23e 1baa 53be
000001a0: 0152 f13d 0e64 dfbd eb27 753d 58f0 aebe
000001b0: f982 bfbd d41f 503e 7803 903e 5857 85be
000001c0: 984b bdbd 5e58 cfbd a693 09be e1e8 9fbe
000001d0: 4287 54be c2c9 5f3e c119 493e f396 19be
000001e0: 0646 213e 67db 83bd d3bb b2be c2ae 35be
000001f0: ad3f 853d 524c 38be a82a 80bd 3ab1 57be
00000200: b54b a13d 936f f33d c37c 7b3d fe6c 70bd
00000210: 58a2 d53b 97c2 e13d d901 0ebe e0fc 8c3e
00000220: 40d4 43be d8b1 3dbe 80c9 85bd 7cf0 54be
00000230: 1c7b d1be 3cc9 1ebb 750f 59be a02a 5fbd
00000240: 1513 2c3e 7a03 713e 8936 2e3e 48b3 6d3d
00000250: cde3 683d 5ebe 053e fd62 a3bd 0950 063e
00000260: 864c 8d3e 86e7 483d ff71 80bd 6bae 2ebe
00000270: 9d0b 01be 4618 773d 5f69 2dbe 8612 803e
00000280: 6a2d 8dbe cdf2 2f3d fd06 e0bd 2b04 3f3e
00000290: cd24 ed3d 9abe f13d 0b35 bf3e 7bad 5cbd
000002a0: e78c cc3d 658a edbd 2ce3 213d a571 98be
000002b0: 7a60 9ebe 8e74 82bd 448b 8d3e 363b 09bd
000002c0: 8b50 09be f8d6 893b cb17 4f3e 002c 593e
000002d0: 68d9 8bbe ceb3 b33e 8f0d 6b3e 25f2 adbe
000002e0: d8a6 a0bd ff2b a93d b2cc c2be afc3 90bc
000002f0: e13b c5bc 527b 303d cc69 62be 16c1 553e
00000300: 4238 8d3c 1ead 5ebd 1f5f 06bd 4b39 12be
00000310: c93e da3c 06b1 8ebd a2a1 363d 9fce 7a3e
00000320: c229 433e b9b9 a93e 07db acbd d702 ad3d
00000330: ea35 533d 8d8d 1cbd 7f94 09bf 64cc c2bd
00000340: 95db 4c3e 457c ff3e 65b0 18be d71b a9be
00000350: 8bfb 8bbc 3301 86be 429a 2e3e 5cfc abbe
00000360: 2e2d 1c3e a4be 1c3e df2c 4bbe a577 4a3e
00000370: 7fa3 dd3d fe19 06be bc8c 2dbe 482d afbe
00000380: 0802 afbe 575c 80be bb85 0e3e 6599 05be
00000390: 0c28 f4be 1a98 873d 868a 9cbd e193 4dbe
000003a0: 801d 7b3e 299a 9f3e 8d13 02be 9ac2 ff3e
000003b0: fc2f d23e 8a72 e8be 8df9 a2bd dd16 52be
000003c0: a597 61bc c448 243e ea5a 93be e780 8f3c
000003d0: 9570 15be 9197 823e e349 963e 03b4 ca3e
000003e0: 081a 38bd 4364 633e f979 49be 02e0 923e
000003f0: d8d5 dd3e fc0e ba3d a82d 91bd 451d 26bd
